: InceptionResnetV1(
  (conv2d_1a): BasicConv2d(
    (conv): Conv2d(3, 32, kernel_size=(3, 3), stride=(2, 2), bias=False)
    (bn): BatchNorm2d(32, eps=0.001, momentum=0.1, affine=True, track_running_stats=True)
    (relu): ReLU()
  )
  (conv2d_2a): BasicConv2d(
    (conv): Conv2d(32, 32, kernel_size=(3, 3), stride=(1, 1), bias=False)
    (bn): BatchNorm2d(32, eps=0.001, momentum=0.1, affine=True, track_running_stats=True)
    (relu): ReLU()
  )
  (conv2d_2b): BasicConv2d(
    (conv): Conv2d(32, 64, kernel_size=(3, 3), stride=(1, 1), padding=(1, 1), bias=False)
    (bn): BatchNorm2d(64, eps=0.001, momentum=0.1, affine=True, track_running_stats=True)
    (relu): ReLU()
  )
  (maxpool_3a): MaxPool2d(kernel_size=3, stride=2, padding=0, dilation=1, ceil_mode=False)
  (conv2d_3b): BasicConv2d(
    (conv): Conv2d(64, 80, kernel_size=(1, 1), stride=(1, 1), bias=False)
    (bn): BatchNorm2d(80, eps=0.001, momentum=0.1, affine=True, track_running_stats=True)
    (relu): ReLU()
  )
  (conv2d_4a): BasicConv2d(
    (conv): Conv2d(80, 192, kernel_size=(3, 3), stride=(1, 1), bias=False)
    (bn): BatchNorm2d(192, eps=0.001, momentum=0.1, affine=True, track_running_stats=True)
    (relu): ReLU()
  )
  (conv2d_4b): BasicConv2d(
    (conv): Conv2d(192, 256, kernel_size=(3, 3), stride=(2, 2), bias=False)
    (bn): BatchNorm2d(256, eps=0.001, momentum=0.1, affine=True, track_running_stats=True)
    (relu): ReLU()
  )
  (repeat_1): Sequential(
    (0): Block35(
      (branch0): BasicConv2d(
        (conv): Conv2d(256, 32, kernel_size=(1, 1), stride=(1, 1), bias=False)
        (bn): BatchNorm2d(32, eps=0.001, momentum=0.1, affine=True, track_running_stats=True)
        (relu): ReLU()
      )
      (branch1): Sequential(
        (0): BasicConv2d(
          (conv): Conv2d(256, 32, kernel_size=(1, 1), stride=(1, 1), bias=False)
          (bn): BatchNorm2d(32, eps=0.001, momentum=0.1, affine=True, track_running_stats=True)
          (relu): ReLU()
        )
        (1): BasicConv2d(
          (conv): Conv2d(32, 32, kernel_size=(3, 3), stride=(1, 1), padding=(1, 1), bias=False)
          (bn): BatchNorm2d(32, eps=0.001, momentum=0.1, affine=True, track_running_stats=True)
          (relu): ReLU()
        )
      )
      (branch2): Sequential(
        (0): BasicConv2d(
          (conv): Conv2d(256, 32, kernel_size=(1, 1), stride=(1, 1), bias=False)
          (bn): BatchNorm2d(32, eps=0.001, momentum=0.1, affine=True, track_running_stats=True)
          (relu): ReLU()
        )
        (1): BasicConv2d(
          (conv): Conv2d(32, 32, kernel_size=(3, 3), stride=(1, 1), padding=(1, 1), bias=False)
          (bn): BatchNorm2d(32, eps=0.001, momentum=0.1, affine=True, track_running_stats=True)
          (relu): ReLU()
        )
        (2): BasicConv2d(
          (conv): Conv2d(32, 32, kernel_size=(3, 3), stride=(1, 1), padding=(1, 1), bias=False)
          (bn): BatchNorm2d(32, eps=0.001, momentum=0.1, affine=True, track_running_stats=True)
          (relu): ReLU()
        )
      )
      (conv2d): Conv2d(96, 256, kernel_size=(1, 1), stride=(1, 1))
      (relu): ReLU()
    )
    (1): Block35(
      (branch0): BasicConv2d(
        (conv): Conv2d(256, 32, kernel_size=(1, 1), stride=(1, 1), bias=False)
        (bn): BatchNorm2d(32, eps=0.001, momentum=0.1, affine=True, track_running_stats=True)
        (relu): ReLU()
      )
      (branch1): Sequential(
        (0): BasicConv2d(
          (conv): Conv2d(256, 32, kernel_size=(1, 1), stride=(1, 1), bias=False)
          (bn): BatchNorm2d(32, eps=0.001, momentum=0.1, affine=True, track_running_stats=True)
          (relu): ReLU()
        )
        (1): BasicConv2d(
          (conv): Conv2d(32, 32, kernel_size=(3, 3), stride=(1, 1), padding=(1, 1), bias=False)
          (bn): BatchNorm2d(32, eps=0.001, momentum=0.1, affine=True, track_running_stats=True)
          (relu): ReLU()
        )
      )
      (branch2): Sequential(
        (0): BasicConv2d(
          (conv): Conv2d(256, 32, kernel_size=(1, 1), stride=(1, 1), bias=False)
          (bn): BatchNorm2d(32, eps=0.001, momentum=0.1, affine=True, track_running_stats=True)
          (relu): ReLU()
        )
        (1): BasicConv2d(
          (conv): Conv2d(32, 32, kernel_size=(3, 3), stride=(1, 1), padding=(1, 1), bias=False)
          (bn): BatchNorm2d(32, eps=0.001, momentum=0.1, affine=True, track_running_stats=True)
          (relu): ReLU()
        )
        (2): BasicConv2d(
          (conv): Conv2d(32, 32, kernel_size=(3, 3), stride=(1, 1), padding=(1, 1), bias=False)
          (bn): BatchNorm2d(32, eps=0.001, momentum=0.1, affine=True, track_running_stats=True)
          (relu): ReLU()
        )
      )
      (conv2d): Conv2d(96, 256, kernel_size=(1, 1), stride=(1, 1))
      (relu): ReLU()
    )
    (2): Block35(
      (branch0): BasicConv2d(
        (conv): Conv2d(256, 32, kernel_size=(1, 1), stride=(1, 1), bias=False)
        (bn): BatchNorm2d(32, eps=0.001, momentum=0.1, affine=True, track_running_stats=True)
        (relu): ReLU()
      )
      (branch1): Sequential(
        (0): BasicConv2d(
          (conv): Conv2d(256, 32, kernel_size=(1, 1), stride=(1, 1), bias=False)
          (bn): BatchNorm2d(32, eps=0.001, momentum=0.1, affine=True, track_running_stats=True)
          (relu): ReLU()
        )
        (1): BasicConv2d(
          (conv): Conv2d(32, 32, kernel_size=(3, 3), stride=(1, 1), padding=(1, 1), bias=False)
          (bn): BatchNorm2d(32, eps=0.001, momentum=0.1, affine=True, track_running_stats=True)
          (relu): ReLU()
        )
      )
      (branch2): Sequential(
        (0): BasicConv2d(
          (conv): Conv2d(256, 32, kernel_size=(1, 1), stride=(1, 1), bias=False)
          (bn): BatchNorm2d(32, eps=0.001, momentum=0.1, affine=True, track_running_stats=True)
          (relu): ReLU()
        )
        (1): BasicConv2d(
          (conv): Conv2d(32, 32, kernel_size=(3, 3), stride=(1, 1), padding=(1, 1), bias=False)
          (bn): BatchNorm2d(32, eps=0.001, momentum=0.1, affine=True, track_running_stats=True)
          (relu): ReLU()
        )
        (2): BasicConv2d(
          (conv): Conv2d(32, 32, kernel_size=(3, 3), stride=(1, 1), padding=(1, 1), bias=False)
          (bn): BatchNorm2d(32, eps=0.001, momentum=0.1, affine=True, track_running_stats=True)
          (relu): ReLU()
        )
      )
      (conv2d): Conv2d(96, 256, kernel_size=(1, 1), stride=(1, 1))
      (relu): ReLU()
    )
    (3): Block35(
      (branch0): BasicConv2d(
        (conv): Conv2d(256, 32, kernel_size=(1, 1), stride=(1, 1), bias=False)
        (bn): BatchNorm2d(32, eps=0.001, momentum=0.1, affine=True, track_running_stats=True)
        (relu): ReLU()
      )
      (branch1): Sequential(
        (0): BasicConv2d(
          (conv): Conv2d(256, 32, kernel_size=(1, 1), stride=(1, 1), bias=False)
          (bn): BatchNorm2d(32, eps=0.001, momentum=0.1, affine=True, track_running_stats=True)
          (relu): ReLU()
        )
        (1): BasicConv2d(
          (conv): Conv2d(32, 32, kernel_size=(3, 3), stride=(1, 1), padding=(1, 1), bias=False)
          (bn): BatchNorm2d(32, eps=0.001, momentum=0.1, affine=True, track_running_stats=True)
          (relu): ReLU()
        )
      )
      (branch2): Sequential(
        (0): BasicConv2d(
          (conv): Conv2d(256, 32, kernel_size=(1, 1), stride=(1, 1), bias=False)
          (bn): BatchNorm2d(32, eps=0.001, momentum=0.1, affine=True, track_running_stats=True)
          (relu): ReLU()
        )
        (1): BasicConv2d(
          (conv): Conv2d(32, 32, kernel_size=(3, 3), stride=(1, 1), padding=(1, 1), bias=False)
          (bn): BatchNorm2d(32, eps=0.001, momentum=0.1, affine=True, track_running_stats=True)
          (relu): ReLU()
        )
        (2): BasicConv2d(
          (conv): Conv2d(32, 32, kernel_size=(3, 3), stride=(1, 1), padding=(1, 1), bias=False)
          (bn): BatchNorm2d(32, eps=0.001, momentum=0.1, affine=True, track_running_stats=True)
          (relu): ReLU()
        )
      )
      (conv2d): Conv2d(96, 256, kernel_size=(1, 1), stride=(1, 1))
      (relu): ReLU()
    )
    (4): Block35(
      (branch0): BasicConv2d(
        (conv): Conv2d(256, 32, kernel_size=(1, 1), stride=(1, 1), bias=False)
        (bn): BatchNorm2d(32, eps=0.001, momentum=0.1, affine=True, track_running_stats=True)
        (relu): ReLU()
      )
      (branch1): Sequential(
        (0): BasicConv2d(
          (conv): Conv2d(256, 32, kernel_size=(1, 1), stride=(1, 1), bias=False)
          (bn): BatchNorm2d(32, eps=0.001, momentum=0.1, affine=True, track_running_stats=True)
          (relu): ReLU()
        )
        (1): BasicConv2d(
          (conv): Conv2d(32, 32, kernel_size=(3, 3), stride=(1, 1), padding=(1, 1), bias=False)
          (bn): BatchNorm2d(32, eps=0.001, momentum=0.1, affine=True, track_running_stats=True)
          (relu): ReLU()
        )
      )
      (branch2): Sequential(
        (0): BasicConv2d(
          (conv): Conv2d(256, 32, kernel_size=(1, 1), stride=(1, 1), bias=False)
          (bn): BatchNorm2d(32, eps=0.001, momentum=0.1, affine=True, track_running_stats=True)
          (relu): ReLU()
        )
        (1): BasicConv2d(
          (conv): Conv2d(32, 32, kernel_size=(3, 3), stride=(1, 1), padding=(1, 1), bias=False)
          (bn): BatchNorm2d(32, eps=0.001, momentum=0.1, affine=True, track_running_stats=True)
          (relu): ReLU()
        )
        (2): BasicConv2d(
          (conv): Conv2d(32, 32, kernel_size=(3, 3), stride=(1, 1), padding=(1, 1), bias=False)
          (bn): BatchNorm2d(32, eps=0.001, momentum=0.1, affine=True, track_running_stats=True)
          (relu): ReLU()
        )
      )
      (conv2d): Conv2d(96, 256, kernel_size=(1, 1), stride=(1, 1))
      (relu): ReLU()
    )
  )
  (mixed_6a): Mixed_6a(
    (branch0): BasicConv2d(
      (conv): Conv2d(256, 384, kernel_size=(3, 3), stride=(2, 2), bias=False)
      (bn): BatchNorm2d(384, eps=0.001, momentum=0.1, affine=True, track_running_stats=True)
      (relu): ReLU()
    )
    (branch1): Sequential(
      (0): BasicConv2d(
        (conv): Conv2d(256, 192, kernel_size=(1, 1), stride=(1, 1), bias=False)
        (bn): BatchNorm2d(192, eps=0.001, momentum=0.1, affine=True, track_running_stats=True)
        (relu): ReLU()
      )
      (1): BasicConv2d(
        (conv): Conv2d(192, 192, kernel_size=(3, 3), stride=(1, 1), padding=(1, 1), bias=False)
        (bn): BatchNorm2d(192, eps=0.001, momentum=0.1, affine=True, track_running_stats=True)
        (relu): ReLU()
      )
      (2): BasicConv2d(
        (conv): Conv2d(192, 256, kernel_size=(3, 3), stride=(2, 2), bias=False)
        (bn): BatchNorm2d(256, eps=0.001, momentum=0.1, affine=True, track_running_stats=True)
        (relu): ReLU()
      )
    )
    (branch2): MaxPool2d(kernel_size=3, stride=2, padding=0, dilation=1, ceil_mode=False)
  )
  (repeat_2): Sequential(
    (0): Block17(
      (branch0): BasicConv2d(
        (conv): Conv2d(896, 128, kernel_size=(1, 1), stride=(1, 1), bias=False)
        (bn): BatchNorm2d(128, eps=0.001, momentum=0.1, affine=True, track_running_stats=True)
        (relu): ReLU()
      )
      (branch1): Sequential(
        (0): BasicConv2d(
          (conv): Conv2d(896, 128, kernel_size=(1, 1), stride=(1, 1), bias=False)
          (bn): BatchNorm2d(128, eps=0.001, momentum=0.1, affine=True, track_running_stats=True)
          (relu): ReLU()
        )
        (1): BasicConv2d(
          (conv): Conv2d(128, 128, kernel_size=(1, 7), stride=(1, 1), padding=(0, 3), bias=False)
          (bn): BatchNorm2d(128, eps=0.001, momentum=0.1, affine=True, track_running_stats=True)
          (relu): ReLU()
        )
        (2): BasicConv2d(
          (conv): Conv2d(128, 128, kernel_size=(7, 1), stride=(1, 1), padding=(3, 0), bias=False)
          (bn): BatchNorm2d(128, eps=0.001, momentum=0.1, affine=True, track_running_stats=True)
          (relu): ReLU()
        )
      )
      (conv2d): Conv2d(256, 896, kernel_size=(1, 1), stride=(1, 1))
      (relu): ReLU()
    )
    (1): Block17(
      (branch0): BasicConv2d(
        (conv): Conv2d(896, 128, kernel_size=(1, 1), stride=(1, 1), bias=False)
        (bn): BatchNorm2d(128, eps=0.001, momentum=0.1, affine=True, track_running_stats=True)
        (relu): ReLU()
      )
      (branch1): Sequential(
        (0): BasicConv2d(
          (conv): Conv2d(896, 128, kernel_size=(1, 1), stride=(1, 1), bias=False)
          (bn): BatchNorm2d(128, eps=0.001, momentum=0.1, affine=True, track_running_stats=True)
          (relu): ReLU()
        )
        (1): BasicConv2d(
          (conv): Conv2d(128, 128, kernel_size=(1, 7), stride=(1, 1), padding=(0, 3), bias=False)
          (bn): BatchNorm2d(128, eps=0.001, momentum=0.1, affine=True, track_running_stats=True)
          (relu): ReLU()
        )
        (2): BasicConv2d(
          (conv): Conv2d(128, 128, kernel_size=(7, 1), stride=(1, 1), padding=(3, 0), bias=False)
          (bn): BatchNorm2d(128, eps=0.001, momentum=0.1, affine=True, track_running_stats=True)
          (relu): ReLU()
        )
      )
      (conv2d): Conv2d(256, 896, kernel_size=(1, 1), stride=(1, 1))
      (relu): ReLU()
    )
    (2): Block17(
      (branch0): BasicConv2d(
        (conv): Conv2d(896, 128, kernel_size=(1, 1), stride=(1, 1), bias=False)
        (bn): BatchNorm2d(128, eps=0.001, momentum=0.1, affine=True, track_running_stats=True)
        (relu): ReLU()
      )
      (branch1): Sequential(
        (0): BasicConv2d(
          (conv): Conv2d(896, 128, kernel_size=(1, 1), stride=(1, 1), bias=False)
          (bn): BatchNorm2d(128, eps=0.001, momentum=0.1, affine=True, track_running_stats=True)
          (relu): ReLU()
        )
        (1): BasicConv2d(
          (conv): Conv2d(128, 128, kernel_size=(1, 7), stride=(1, 1), padding=(0, 3), bias=False)
          (bn): BatchNorm2d(128, eps=0.001, momentum=0.1, affine=True, track_running_stats=True)
          (relu): ReLU()
        )
        (2): BasicConv2d(
          (conv): Conv2d(128, 128, kernel_size=(7, 1), stride=(1, 1), padding=(3, 0), bias=False)
          (bn): BatchNorm2d(128, eps=0.001, momentum=0.1, affine=True, track_running_stats=True)
          (relu): ReLU()
        )
      )
      (conv2d): Conv2d(256, 896, kernel_size=(1, 1), stride=(1, 1))
      (relu): ReLU()
    )
    (3): Block17(
      (branch0): BasicConv2d(
        (conv): Conv2d(896, 128, kernel_size=(1, 1), stride=(1, 1), bias=False)
        (bn): BatchNorm2d(128, eps=0.001, momentum=0.1, affine=True, track_running_stats=True)
        (relu): ReLU()
      )
      (branch1): Sequential(
        (0): BasicConv2d(
          (conv): Conv2d(896, 128, kernel_size=(1, 1), stride=(1, 1), bias=False)
          (bn): BatchNorm2d(128, eps=0.001, momentum=0.1, affine=True, track_running_stats=True)
          (relu): ReLU()
        )
        (1): BasicConv2d(
          (conv): Conv2d(128, 128, kernel_size=(1, 7), stride=(1, 1), padding=(0, 3), bias=False)
          (bn): BatchNorm2d(128, eps=0.001, momentum=0.1, affine=True, track_running_stats=True)
          (relu): ReLU()
        )
        (2): BasicConv2d(
          (conv): Conv2d(128, 128, kernel_size=(7, 1), stride=(1, 1), padding=(3, 0), bias=False)
          (bn): BatchNorm2d(128, eps=0.001, momentum=0.1, affine=True, track_running_stats=True)
          (relu): ReLU()
        )
      )
      (conv2d): Conv2d(256, 896, kernel_size=(1, 1), stride=(1, 1))
      (relu): ReLU()
    )
    (4): Block17(
      (branch0): BasicConv2d(
        (conv): Conv2d(896, 128, kernel_size=(1, 1), stride=(1, 1), bias=False)
        (bn): BatchNorm2d(128, eps=0.001, momentum=0.1, affine=True, track_running_stats=True)
        (relu): ReLU()
      )
      (branch1): Sequential(
        (0): BasicConv2d(
          (conv): Conv2d(896, 128, kernel_size=(1, 1), stride=(1, 1), bias=False)
          (bn): BatchNorm2d(128, eps=0.001, momentum=0.1, affine=True, track_running_stats=True)
          (relu): ReLU()
        )
        (1): BasicConv2d(
          (conv): Conv2d(128, 128, kernel_size=(1, 7), stride=(1, 1), padding=(0, 3), bias=False)
          (bn): BatchNorm2d(128, eps=0.001, momentum=0.1, affine=True, track_running_stats=True)
          (relu): ReLU()
        )
        (2): BasicConv2d(
          (conv): Conv2d(128, 128, kernel_size=(7, 1), stride=(1, 1), padding=(3, 0), bias=False)
          (bn): BatchNorm2d(128, eps=0.001, momentum=0.1, affine=True, track_running_stats=True)
          (relu): ReLU()
        )
      )
      (conv2d): Conv2d(256, 896, kernel_size=(1, 1), stride=(1, 1))
      (relu): ReLU()
    )
    (5): Block17(
      (branch0): BasicConv2d(
        (conv): Conv2d(896, 128, kernel_size=(1, 1), stride=(1, 1), bias=False)
        (bn): BatchNorm2d(128, eps=0.001, momentum=0.1, affine=True, track_running_stats=True)
        (relu): ReLU()
      )
      (branch1): Sequential(
        (0): BasicConv2d(
          (conv): Conv2d(896, 128, kernel_size=(1, 1), stride=(1, 1), bias=False)
          (bn): BatchNorm2d(128, eps=0.001, momentum=0.1, affine=True, track_running_stats=True)
          (relu): ReLU()
        )
        (1): BasicConv2d(
          (conv): Conv2d(128, 128, kernel_size=(1, 7), stride=(1, 1), padding=(0, 3), bias=False)
          (bn): BatchNorm2d(128, eps=0.001, momentum=0.1, affine=True, track_running_stats=True)
          (relu): ReLU()
        )
        (2): BasicConv2d(
          (conv): Conv2d(128, 128, kernel_size=(7, 1), stride=(1, 1), padding=(3, 0), bias=False)
          (bn): BatchNorm2d(128, eps=0.001, momentum=0.1, affine=True, track_running_stats=True)
          (relu): ReLU()
        )
      )
      (conv2d): Conv2d(256, 896, kernel_size=(1, 1), stride=(1, 1))
      (relu): ReLU()
    )
    (6): Block17(
      (branch0): BasicConv2d(
        (conv): Conv2d(896, 128, kernel_size=(1, 1), stride=(1, 1), bias=False)
        (bn): BatchNorm2d(128, eps=0.001, momentum=0.1, affine=True, track_running_stats=True)
        (relu): ReLU()
      )
      (branch1): Sequential(
        (0): BasicConv2d(
          (conv): Conv2d(896, 128, kernel_size=(1, 1), stride=(1, 1), bias=False)
          (bn): BatchNorm2d(128, eps=0.001, momentum=0.1, affine=True, track_running_stats=True)
          (relu): ReLU()
        )
        (1): BasicConv2d(
          (conv): Conv2d(128, 128, kernel_size=(1, 7), stride=(1, 1), padding=(0, 3), bias=False)
          (bn): BatchNorm2d(128, eps=0.001, momentum=0.1, affine=True, track_running_stats=True)
          (relu): ReLU()
        )
        (2): BasicConv2d(
          (conv): Conv2d(128, 128, kernel_size=(7, 1), stride=(1, 1), padding=(3, 0), bias=False)
          (bn): BatchNorm2d(128, eps=0.001, momentum=0.1, affine=True, track_running_stats=True)
          (relu): ReLU()
        )
      )
      (conv2d): Conv2d(256, 896, kernel_size=(1, 1), stride=(1, 1))
      (relu): ReLU()
    )
    (7): Block17(
      (branch0): BasicConv2d(
        (conv): Conv2d(896, 128, kernel_size=(1, 1), stride=(1, 1), bias=False)
        (bn): BatchNorm2d(128, eps=0.001, momentum=0.1, affine=True, track_running_stats=True)
        (relu): ReLU()
      )
      (branch1): Sequential(
        (0): BasicConv2d(
          (conv): Conv2d(896, 128, kernel_size=(1, 1), stride=(1, 1), bias=False)
          (bn): BatchNorm2d(128, eps=0.001, momentum=0.1, affine=True, track_running_stats=True)
          (relu): ReLU()
        )
        (1): BasicConv2d(
          (conv): Conv2d(128, 128, kernel_size=(1, 7), stride=(1, 1), padding=(0, 3), bias=False)
          (bn): BatchNorm2d(128, eps=0.001, momentum=0.1, affine=True, track_running_stats=True)
          (relu): ReLU()
        )
        (2): BasicConv2d(
          (conv): Conv2d(128, 128, kernel_size=(7, 1), stride=(1, 1), padding=(3, 0), bias=False)
          (bn): BatchNorm2d(128, eps=0.001, momentum=0.1, affine=True, track_running_stats=True)
          (relu): ReLU()
        )
      )
      (conv2d): Conv2d(256, 896, kernel_size=(1, 1), stride=(1, 1))
      (relu): ReLU()
    )
    (8): Block17(
      (branch0): BasicConv2d(
        (conv): Conv2d(896, 128, kernel_size=(1, 1), stride=(1, 1), bias=False)
        (bn): BatchNorm2d(128, eps=0.001, momentum=0.1, affine=True, track_running_stats=True)
        (relu): ReLU()
      )
      (branch1): Sequential(
        (0): BasicConv2d(
          (conv): Conv2d(896, 128, kernel_size=(1, 1), stride=(1, 1), bias=False)
          (bn): BatchNorm2d(128, eps=0.001, momentum=0.1, affine=True, track_running_stats=True)
          (relu): ReLU()
        )
        (1): BasicConv2d(
          (conv): Conv2d(128, 128, kernel_size=(1, 7), stride=(1, 1), padding=(0, 3), bias=False)
          (bn): BatchNorm2d(128, eps=0.001, momentum=0.1, affine=True, track_running_stats=True)
          (relu): ReLU()
        )
        (2): BasicConv2d(
          (conv): Conv2d(128, 128, kernel_size=(7, 1), stride=(1, 1), padding=(3, 0), bias=False)
          (bn): BatchNorm2d(128, eps=0.001, momentum=0.1, affine=True, track_running_stats=True)
          (relu): ReLU()
        )
      )
      (conv2d): Conv2d(256, 896, kernel_size=(1, 1), stride=(1, 1))
      (relu): ReLU()
    )
    (9): Block17(
      (branch0): BasicConv2d(
        (conv): Conv2d(896, 128, kernel_size=(1, 1), stride=(1, 1), bias=False)
        (bn): BatchNorm2d(128, eps=0.001, momentum=0.1, affine=True, track_running_stats=True)
        (relu): ReLU()
      )
      (branch1): Sequential(
        (0): BasicConv2d(
          (conv): Conv2d(896, 128, kernel_size=(1, 1), stride=(1, 1), bias=False)
          (bn): BatchNorm2d(128, eps=0.001, momentum=0.1, affine=True, track_running_stats=True)
          (relu): ReLU()
        )
        (1): BasicConv2d(
          (conv): Conv2d(128, 128, kernel_size=(1, 7), stride=(1, 1), padding=(0, 3), bias=False)
          (bn): BatchNorm2d(128, eps=0.001, momentum=0.1, affine=True, track_running_stats=True)
          (relu): ReLU()
        )
        (2): BasicConv2d(
          (conv): Conv2d(128, 128, kernel_size=(7, 1), stride=(1, 1), padding=(3, 0), bias=False)
          (bn): BatchNorm2d(128, eps=0.001, momentum=0.1, affine=True, track_running_stats=True)
          (relu): ReLU()
        )
      )
      (conv2d): Conv2d(256, 896, kernel_size=(1, 1), stride=(1, 1))
      (relu): ReLU()
    )
  )
  (mixed_7a): Mixed_7a(
    (branch0): Sequential(
      (0): BasicConv2d(
        (conv): Conv2d(896, 256, kernel_size=(1, 1), stride=(1, 1), bias=False)
        (bn): BatchNorm2d(256, eps=0.001, momentum=0.1, affine=True, track_running_stats=True)
        (relu): ReLU()
      )
      (1): BasicConv2d(
        (conv): Conv2d(256, 384, kernel_size=(3, 3), stride=(2, 2), bias=False)
        (bn): BatchNorm2d(384, eps=0.001, momentum=0.1, affine=True, track_running_stats=True)
        (relu): ReLU()
      )
    )
    (branch1): Sequential(
      (0): BasicConv2d(
        (conv): Conv2d(896, 256, kernel_size=(1, 1), stride=(1, 1), bias=False)
        (bn): BatchNorm2d(256, eps=0.001, momentum=0.1, affine=True, track_running_stats=True)
        (relu): ReLU()
      )
      (1): BasicConv2d(
        (conv): Conv2d(256, 256, kernel_size=(3, 3), stride=(2, 2), bias=False)
        (bn): BatchNorm2d(256, eps=0.001, momentum=0.1, affine=True, track_running_stats=True)
        (relu): ReLU()
      )
    )
    (branch2): Sequential(
      (0): BasicConv2d(
        (conv): Conv2d(896, 256, kernel_size=(1, 1), stride=(1, 1), bias=False)
        (bn): BatchNorm2d(256, eps=0.001, momentum=0.1, affine=True, track_running_stats=True)
        (relu): ReLU()
      )
      (1): BasicConv2d(
        (conv): Conv2d(256, 256, kernel_size=(3, 3), stride=(1, 1), padding=(1, 1), bias=False)
        (bn): BatchNorm2d(256, eps=0.001, momentum=0.1, affine=True, track_running_stats=True)
        (relu): ReLU()
      )
      (2): BasicConv2d(
        (conv): Conv2d(256, 256, kernel_size=(3, 3), stride=(2, 2), bias=False)
        (bn): BatchNorm2d(256, eps=0.001, momentum=0.1, affine=True, track_running_stats=True)
        (relu): ReLU()
      )
    )
    (branch3): MaxPool2d(kernel_size=3, stride=2, padding=0, dilation=1, ceil_mode=False)
  )
  (repeat_3): Sequential(
    (0): Block8(
      (branch0): BasicConv2d(
        (conv): Conv2d(1792, 192, kernel_size=(1, 1), stride=(1, 1), bias=False)
        (bn): BatchNorm2d(192, eps=0.001, momentum=0.1, affine=True, track_running_stats=True)
        (relu): ReLU()
      )
      (branch1): Sequential(
        (0): BasicConv2d(
          (conv): Conv2d(1792, 192, kernel_size=(1, 1), stride=(1, 1), bias=False)
          (bn): BatchNorm2d(192, eps=0.001, momentum=0.1, affine=True, track_running_stats=True)
          (relu): ReLU()
        )
        (1): BasicConv2d(
          (conv): Conv2d(192, 192, kernel_size=(1, 3), stride=(1, 1), padding=(0, 1), bias=False)
          (bn): BatchNorm2d(192, eps=0.001, momentum=0.1, affine=True, track_running_stats=True)
          (relu): ReLU()
        )
        (2): BasicConv2d(
          (conv): Conv2d(192, 192, kernel_size=(3, 1), stride=(1, 1), padding=(1, 0), bias=False)
          (bn): BatchNorm2d(192, eps=0.001, momentum=0.1, affine=True, track_running_stats=True)
          (relu): ReLU()
        )
      )
      (conv2d): Conv2d(384, 1792, kernel_size=(1, 1), stride=(1, 1))
      (relu): ReLU()
    )
    (1): Block8(
      (branch0): BasicConv2d(
        (conv): Conv2d(1792, 192, kernel_size=(1, 1), stride=(1, 1), bias=False)
        (bn): BatchNorm2d(192, eps=0.001, momentum=0.1, affine=True, track_running_stats=True)
        (relu): ReLU()
      )
      (branch1): Sequential(
        (0): BasicConv2d(
          (conv): Conv2d(1792, 192, kernel_size=(1, 1), stride=(1, 1), bias=False)
          (bn): BatchNorm2d(192, eps=0.001, momentum=0.1, affine=True, track_running_stats=True)
          (relu): ReLU()
        )
        (1): BasicConv2d(
          (conv): Conv2d(192, 192, kernel_size=(1, 3), stride=(1, 1), padding=(0, 1), bias=False)
          (bn): BatchNorm2d(192, eps=0.001, momentum=0.1, affine=True, track_running_stats=True)
          (relu): ReLU()
        )
        (2): BasicConv2d(
          (conv): Conv2d(192, 192, kernel_size=(3, 1), stride=(1, 1), padding=(1, 0), bias=False)
          (bn): BatchNorm2d(192, eps=0.001, momentum=0.1, affine=True, track_running_stats=True)
          (relu): ReLU()
        )
      )
      (conv2d): Conv2d(384, 1792, kernel_size=(1, 1), stride=(1, 1))
      (relu): ReLU()
    )
    (2): Block8(
      (branch0): BasicConv2d(
        (conv): Conv2d(1792, 192, kernel_size=(1, 1), stride=(1, 1), bias=False)
        (bn): BatchNorm2d(192, eps=0.001, momentum=0.1, affine=True, track_running_stats=True)
        (relu): ReLU()
      )
      (branch1): Sequential(
        (0): BasicConv2d(
          (conv): Conv2d(1792, 192, kernel_size=(1, 1), stride=(1, 1), bias=False)
          (bn): BatchNorm2d(192, eps=0.001, momentum=0.1, affine=True, track_running_stats=True)
          (relu): ReLU()
        )
        (1): BasicConv2d(
          (conv): Conv2d(192, 192, kernel_size=(1, 3), stride=(1, 1), padding=(0, 1), bias=False)
          (bn): BatchNorm2d(192, eps=0.001, momentum=0.1, affine=True, track_running_stats=True)
          (relu): ReLU()
        )
        (2): BasicConv2d(
          (conv): Conv2d(192, 192, kernel_size=(3, 1), stride=(1, 1), padding=(1, 0), bias=False)
          (bn): BatchNorm2d(192, eps=0.001, momentum=0.1, affine=True, track_running_stats=True)
          (relu): ReLU()
        )
      )
      (conv2d): Conv2d(384, 1792, kernel_size=(1, 1), stride=(1, 1))
      (relu): ReLU()
    )
    (3): Block8(
      (branch0): BasicConv2d(
        (conv): Conv2d(1792, 192, kernel_size=(1, 1), stride=(1, 1), bias=False)
        (bn): BatchNorm2d(192, eps=0.001, momentum=0.1, affine=True, track_running_stats=True)
        (relu): ReLU()
      )
      (branch1): Sequential(
        (0): BasicConv2d(
          (conv): Conv2d(1792, 192, kernel_size=(1, 1), stride=(1, 1), bias=False)
          (bn): BatchNorm2d(192, eps=0.001, momentum=0.1, affine=True, track_running_stats=True)
          (relu): ReLU()
        )
        (1): BasicConv2d(
          (conv): Conv2d(192, 192, kernel_size=(1, 3), stride=(1, 1), padding=(0, 1), bias=False)
          (bn): BatchNorm2d(192, eps=0.001, momentum=0.1, affine=True, track_running_stats=True)
          (relu): ReLU()
        )
        (2): BasicConv2d(
          (conv): Conv2d(192, 192, kernel_size=(3, 1), stride=(1, 1), padding=(1, 0), bias=False)
          (bn): BatchNorm2d(192, eps=0.001, momentum=0.1, affine=True, track_running_stats=True)
          (relu): ReLU()
        )
      )
      (conv2d): Conv2d(384, 1792, kernel_size=(1, 1), stride=(1, 1))
      (relu): ReLU()
    )
    (4): Block8(
      (branch0): BasicConv2d(
        (conv): Conv2d(1792, 192, kernel_size=(1, 1), stride=(1, 1), bias=False)
        (bn): BatchNorm2d(192, eps=0.001, momentum=0.1, affine=True, track_running_stats=True)
        (relu): ReLU()
      )
      (branch1): Sequential(
        (0): BasicConv2d(
          (conv): Conv2d(1792, 192, kernel_size=(1, 1), stride=(1, 1), bias=False)
          (bn): BatchNorm2d(192, eps=0.001, momentum=0.1, affine=True, track_running_stats=True)
          (relu): ReLU()
        )
        (1): BasicConv2d(
          (conv): Conv2d(192, 192, kernel_size=(1, 3), stride=(1, 1), padding=(0, 1), bias=False)
          (bn): BatchNorm2d(192, eps=0.001, momentum=0.1, affine=True, track_running_stats=True)
          (relu): ReLU()
        )
        (2): BasicConv2d(
          (conv): Conv2d(192, 192, kernel_size=(3, 1), stride=(1, 1), padding=(1, 0), bias=False)
          (bn): BatchNorm2d(192, eps=0.001, momentum=0.1, affine=True, track_running_stats=True)
          (relu): ReLU()
        )
      )
      (conv2d): Conv2d(384, 1792, kernel_size=(1, 1), stride=(1, 1))
      (relu): ReLU()
    )
  )
  (block8): Block8(
    (branch0): BasicConv2d(
      (conv): Conv2d(1792, 192, kernel_size=(1, 1), stride=(1, 1), bias=False)
      (bn): BatchNorm2d(192, eps=0.001, momentum=0.1, affine=True, track_running_stats=True)
      (relu): ReLU()
    )
    (branch1): Sequential(
      (0): BasicConv2d(
        (conv): Conv2d(1792, 192, kernel_size=(1, 1), stride=(1, 1), bias=False)
        (bn): BatchNorm2d(192, eps=0.001, momentum=0.1, affine=True, track_running_stats=True)
        (relu): ReLU()
      )
      (1): BasicConv2d(
        (conv): Conv2d(192, 192, kernel_size=(1, 3), stride=(1, 1), padding=(0, 1), bias=False)
        (bn): BatchNorm2d(192, eps=0.001, momentum=0.1, affine=True, track_running_stats=True)
        (relu): ReLU()
      )
      (2): BasicConv2d(
        (conv): Conv2d(192, 192, kernel_size=(3, 1), stride=(1, 1), padding=(1, 0), bias=False)
        (bn): BatchNorm2d(192, eps=0.001, momentum=0.1, affine=True, track_running_stats=True)
        (relu): ReLU()
      )
    )
    (conv2d): Conv2d(384, 1792, kernel_size=(1, 1), stride=(1, 1))
  )
  (avgpool_1a): AdaptiveAvgPool2d(output_size=1)
  (dropout): Dropout(p=0.6, inplace=False)
  (last_linear): Linear(in_features=1792, out_features=512, bias=False)
  (last_bn): BatchNorm1d(512, eps=0.001, momentum=0.1, affine=True, track_running_stats=True)
  (logits): Linear(in_features=512, out_features=8631, bias=True)
)
conv2d_1a: BasicConv2d(
  (conv): Conv2d(3, 32, kernel_size=(3, 3), stride=(2, 2), bias=False)
  (bn): BatchNorm2d(32, eps=0.001, momentum=0.1, affine=True, track_running_stats=True)
  (relu): ReLU()
)
conv2d_1a.conv: Conv2d(3, 32, kernel_size=(3, 3), stride=(2, 2), bias=False)
conv2d_1a.bn: BatchNorm2d(32, eps=0.001, momentum=0.1, affine=True, track_running_stats=True)
conv2d_1a.relu: ReLU()
conv2d_2a: BasicConv2d(
  (conv): Conv2d(32, 32, kernel_size=(3, 3), stride=(1, 1), bias=False)
  (bn): BatchNorm2d(32, eps=0.001, momentum=0.1, affine=True, track_running_stats=True)
  (relu): ReLU()
)
conv2d_2a.conv: Conv2d(32, 32, kernel_size=(3, 3), stride=(1, 1), bias=False)
conv2d_2a.bn: BatchNorm2d(32, eps=0.001, momentum=0.1, affine=True, track_running_stats=True)
conv2d_2a.relu: ReLU()
conv2d_2b: BasicConv2d(
  (conv): Conv2d(32, 64, kernel_size=(3, 3), stride=(1, 1), padding=(1, 1), bias=False)
  (bn): BatchNorm2d(64, eps=0.001, momentum=0.1, affine=True, track_running_stats=True)
  (relu): ReLU()
)
conv2d_2b.conv: Conv2d(32, 64, kernel_size=(3, 3), stride=(1, 1), padding=(1, 1), bias=False)
conv2d_2b.bn: BatchNorm2d(64, eps=0.001, momentum=0.1, affine=True, track_running_stats=True)
conv2d_2b.relu: ReLU()
maxpool_3a: MaxPool2d(kernel_size=3, stride=2, padding=0, dilation=1, ceil_mode=False)
conv2d_3b: BasicConv2d(
  (conv): Conv2d(64, 80, kernel_size=(1, 1), stride=(1, 1), bias=False)
  (bn): BatchNorm2d(80, eps=0.001, momentum=0.1, affine=True, track_running_stats=True)
  (relu): ReLU()
)
conv2d_3b.conv: Conv2d(64, 80, kernel_size=(1, 1), stride=(1, 1), bias=False)
conv2d_3b.bn: BatchNorm2d(80, eps=0.001, momentum=0.1, affine=True, track_running_stats=True)
conv2d_3b.relu: ReLU()
conv2d_4a: BasicConv2d(
  (conv): Conv2d(80, 192, kernel_size=(3, 3), stride=(1, 1), bias=False)
  (bn): BatchNorm2d(192, eps=0.001, momentum=0.1, affine=True, track_running_stats=True)
  (relu): ReLU()
)
conv2d_4a.conv: Conv2d(80, 192, kernel_size=(3, 3), stride=(1, 1), bias=False)
conv2d_4a.bn: BatchNorm2d(192, eps=0.001, momentum=0.1, affine=True, track_running_stats=True)
conv2d_4a.relu: ReLU()
conv2d_4b: BasicConv2d(
  (conv): Conv2d(192, 256, kernel_size=(3, 3), stride=(2, 2), bias=False)
  (bn): BatchNorm2d(256, eps=0.001, momentum=0.1, affine=True, track_running_stats=True)
  (relu): ReLU()
)
conv2d_4b.conv: Conv2d(192, 256, kernel_size=(3, 3), stride=(2, 2), bias=False)
conv2d_4b.bn: BatchNorm2d(256, eps=0.001, momentum=0.1, affine=True, track_running_stats=True)
conv2d_4b.relu: ReLU()
repeat_1: Sequential(
  (0): Block35(
    (branch0): BasicConv2d(
      (conv): Conv2d(256, 32, kernel_size=(1, 1), stride=(1, 1), bias=False)
      (bn): BatchNorm2d(32, eps=0.001, momentum=0.1, affine=True, track_running_stats=True)
      (relu): ReLU()
    )
    (branch1): Sequential(
      (0): BasicConv2d(
        (conv): Conv2d(256, 32, kernel_size=(1, 1), stride=(1, 1), bias=False)
        (bn): BatchNorm2d(32, eps=0.001, momentum=0.1, affine=True, track_running_stats=True)
        (relu): ReLU()
      )
      (1): BasicConv2d(
        (conv): Conv2d(32, 32, kernel_size=(3, 3), stride=(1, 1), padding=(1, 1), bias=False)
        (bn): BatchNorm2d(32, eps=0.001, momentum=0.1, affine=True, track_running_stats=True)
        (relu): ReLU()
      )
    )
    (branch2): Sequential(
      (0): BasicConv2d(
        (conv): Conv2d(256, 32, kernel_size=(1, 1), stride=(1, 1), bias=False)
        (bn): BatchNorm2d(32, eps=0.001, momentum=0.1, affine=True, track_running_stats=True)
        (relu): ReLU()
      )
      (1): BasicConv2d(
        (conv): Conv2d(32, 32, kernel_size=(3, 3), stride=(1, 1), padding=(1, 1), bias=False)
        (bn): BatchNorm2d(32, eps=0.001, momentum=0.1, affine=True, track_running_stats=True)
        (relu): ReLU()
      )
      (2): BasicConv2d(
        (conv): Conv2d(32, 32, kernel_size=(3, 3), stride=(1, 1), padding=(1, 1), bias=False)
        (bn): BatchNorm2d(32, eps=0.001, momentum=0.1, affine=True, track_running_stats=True)
        (relu): ReLU()
      )
    )
    (conv2d): Conv2d(96, 256, kernel_size=(1, 1), stride=(1, 1))
    (relu): ReLU()
  )
  (1): Block35(
    (branch0): BasicConv2d(
      (conv): Conv2d(256, 32, kernel_size=(1, 1), stride=(1, 1), bias=False)
      (bn): BatchNorm2d(32, eps=0.001, momentum=0.1, affine=True, track_running_stats=True)
      (relu): ReLU()
    )
    (branch1): Sequential(
      (0): BasicConv2d(
        (conv): Conv2d(256, 32, kernel_size=(1, 1), stride=(1, 1), bias=False)
        (bn): BatchNorm2d(32, eps=0.001, momentum=0.1, affine=True, track_running_stats=True)
        (relu): ReLU()
      )
      (1): BasicConv2d(
        (conv): Conv2d(32, 32, kernel_size=(3, 3), stride=(1, 1), padding=(1, 1), bias=False)
        (bn): BatchNorm2d(32, eps=0.001, momentum=0.1, affine=True, track_running_stats=True)
        (relu): ReLU()
      )
    )
    (branch2): Sequential(
      (0): BasicConv2d(
        (conv): Conv2d(256, 32, kernel_size=(1, 1), stride=(1, 1), bias=False)
        (bn): BatchNorm2d(32, eps=0.001, momentum=0.1, affine=True, track_running_stats=True)
        (relu): ReLU()
      )
      (1): BasicConv2d(
        (conv): Conv2d(32, 32, kernel_size=(3, 3), stride=(1, 1), padding=(1, 1), bias=False)
        (bn): BatchNorm2d(32, eps=0.001, momentum=0.1, affine=True, track_running_stats=True)
        (relu): ReLU()
      )
      (2): BasicConv2d(
        (conv): Conv2d(32, 32, kernel_size=(3, 3), stride=(1, 1), padding=(1, 1), bias=False)
        (bn): BatchNorm2d(32, eps=0.001, momentum=0.1, affine=True, track_running_stats=True)
        (relu): ReLU()
      )
    )
    (conv2d): Conv2d(96, 256, kernel_size=(1, 1), stride=(1, 1))
    (relu): ReLU()
  )
  (2): Block35(
    (branch0): BasicConv2d(
      (conv): Conv2d(256, 32, kernel_size=(1, 1), stride=(1, 1), bias=False)
      (bn): BatchNorm2d(32, eps=0.001, momentum=0.1, affine=True, track_running_stats=True)
      (relu): ReLU()
    )
    (branch1): Sequential(
      (0): BasicConv2d(
        (conv): Conv2d(256, 32, kernel_size=(1, 1), stride=(1, 1), bias=False)
        (bn): BatchNorm2d(32, eps=0.001, momentum=0.1, affine=True, track_running_stats=True)
        (relu): ReLU()
      )
      (1): BasicConv2d(
        (conv): Conv2d(32, 32, kernel_size=(3, 3), stride=(1, 1), padding=(1, 1), bias=False)
        (bn): BatchNorm2d(32, eps=0.001, momentum=0.1, affine=True, track_running_stats=True)
        (relu): ReLU()
      )
    )
    (branch2): Sequential(
      (0): BasicConv2d(
        (conv): Conv2d(256, 32, kernel_size=(1, 1), stride=(1, 1), bias=False)
        (bn): BatchNorm2d(32, eps=0.001, momentum=0.1, affine=True, track_running_stats=True)
        (relu): ReLU()
      )
      (1): BasicConv2d(
        (conv): Conv2d(32, 32, kernel_size=(3, 3), stride=(1, 1), padding=(1, 1), bias=False)
        (bn): BatchNorm2d(32, eps=0.001, momentum=0.1, affine=True, track_running_stats=True)
        (relu): ReLU()
      )
      (2): BasicConv2d(
        (conv): Conv2d(32, 32, kernel_size=(3, 3), stride=(1, 1), padding=(1, 1), bias=False)
        (bn): BatchNorm2d(32, eps=0.001, momentum=0.1, affine=True, track_running_stats=True)
        (relu): ReLU()
      )
    )
    (conv2d): Conv2d(96, 256, kernel_size=(1, 1), stride=(1, 1))
    (relu): ReLU()
  )
  (3): Block35(
    (branch0): BasicConv2d(
      (conv): Conv2d(256, 32, kernel_size=(1, 1), stride=(1, 1), bias=False)
      (bn): BatchNorm2d(32, eps=0.001, momentum=0.1, affine=True, track_running_stats=True)
      (relu): ReLU()
    )
    (branch1): Sequential(
      (0): BasicConv2d(
        (conv): Conv2d(256, 32, kernel_size=(1, 1), stride=(1, 1), bias=False)
        (bn): BatchNorm2d(32, eps=0.001, momentum=0.1, affine=True, track_running_stats=True)
        (relu): ReLU()
      )
      (1): BasicConv2d(
        (conv): Conv2d(32, 32, kernel_size=(3, 3), stride=(1, 1), padding=(1, 1), bias=False)
        (bn): BatchNorm2d(32, eps=0.001, momentum=0.1, affine=True, track_running_stats=True)
        (relu): ReLU()
      )
    )
    (branch2): Sequential(
      (0): BasicConv2d(
        (conv): Conv2d(256, 32, kernel_size=(1, 1), stride=(1, 1), bias=False)
        (bn): BatchNorm2d(32, eps=0.001, momentum=0.1, affine=True, track_running_stats=True)
        (relu): ReLU()
      )
      (1): BasicConv2d(
        (conv): Conv2d(32, 32, kernel_size=(3, 3), stride=(1, 1), padding=(1, 1), bias=False)
        (bn): BatchNorm2d(32, eps=0.001, momentum=0.1, affine=True, track_running_stats=True)
        (relu): ReLU()
      )
      (2): BasicConv2d(
        (conv): Conv2d(32, 32, kernel_size=(3, 3), stride=(1, 1), padding=(1, 1), bias=False)
        (bn): BatchNorm2d(32, eps=0.001, momentum=0.1, affine=True, track_running_stats=True)
        (relu): ReLU()
      )
    )
    (conv2d): Conv2d(96, 256, kernel_size=(1, 1), stride=(1, 1))
    (relu): ReLU()
  )
  (4): Block35(
    (branch0): BasicConv2d(
      (conv): Conv2d(256, 32, kernel_size=(1, 1), stride=(1, 1), bias=False)
      (bn): BatchNorm2d(32, eps=0.001, momentum=0.1, affine=True, track_running_stats=True)
      (relu): ReLU()
    )
    (branch1): Sequential(
      (0): BasicConv2d(
        (conv): Conv2d(256, 32, kernel_size=(1, 1), stride=(1, 1), bias=False)
        (bn): BatchNorm2d(32, eps=0.001, momentum=0.1, affine=True, track_running_stats=True)
        (relu): ReLU()
      )
      (1): BasicConv2d(
        (conv): Conv2d(32, 32, kernel_size=(3, 3), stride=(1, 1), padding=(1, 1), bias=False)
        (bn): BatchNorm2d(32, eps=0.001, momentum=0.1, affine=True, track_running_stats=True)
        (relu): ReLU()
      )
    )
    (branch2): Sequential(
      (0): BasicConv2d(
        (conv): Conv2d(256, 32, kernel_size=(1, 1), stride=(1, 1), bias=False)
        (bn): BatchNorm2d(32, eps=0.001, momentum=0.1, affine=True, track_running_stats=True)
        (relu): ReLU()
      )
      (1): BasicConv2d(
        (conv): Conv2d(32, 32, kernel_size=(3, 3), stride=(1, 1), padding=(1, 1), bias=False)
        (bn): BatchNorm2d(32, eps=0.001, momentum=0.1, affine=True, track_running_stats=True)
        (relu): ReLU()
      )
      (2): BasicConv2d(
        (conv): Conv2d(32, 32, kernel_size=(3, 3), stride=(1, 1), padding=(1, 1), bias=False)
        (bn): BatchNorm2d(32, eps=0.001, momentum=0.1, affine=True, track_running_stats=True)
        (relu): ReLU()
      )
    )
    (conv2d): Conv2d(96, 256, kernel_size=(1, 1), stride=(1, 1))
    (relu): ReLU()
  )
)
repeat_1.0: Block35(
  (branch0): BasicConv2d(
    (conv): Conv2d(256, 32, kernel_size=(1, 1), stride=(1, 1), bias=False)
    (bn): BatchNorm2d(32, eps=0.001, momentum=0.1, affine=True, track_running_stats=True)
    (relu): ReLU()
  )
  (branch1): Sequential(
    (0): BasicConv2d(
      (conv): Conv2d(256, 32, kernel_size=(1, 1), stride=(1, 1), bias=False)
      (bn): BatchNorm2d(32, eps=0.001, momentum=0.1, affine=True, track_running_stats=True)
      (relu): ReLU()
    )
    (1): BasicConv2d(
      (conv): Conv2d(32, 32, kernel_size=(3, 3), stride=(1, 1), padding=(1, 1), bias=False)
      (bn): BatchNorm2d(32, eps=0.001, momentum=0.1, affine=True, track_running_stats=True)
      (relu): ReLU()
    )
  )
  (branch2): Sequential(
    (0): BasicConv2d(
      (conv): Conv2d(256, 32, kernel_size=(1, 1), stride=(1, 1), bias=False)
      (bn): BatchNorm2d(32, eps=0.001, momentum=0.1, affine=True, track_running_stats=True)
      (relu): ReLU()
    )
    (1): BasicConv2d(
      (conv): Conv2d(32, 32, kernel_size=(3, 3), stride=(1, 1), padding=(1, 1), bias=False)
      (bn): BatchNorm2d(32, eps=0.001, momentum=0.1, affine=True, track_running_stats=True)
      (relu): ReLU()
    )
    (2): BasicConv2d(
      (conv): Conv2d(32, 32, kernel_size=(3, 3), stride=(1, 1), padding=(1, 1), bias=False)
      (bn): BatchNorm2d(32, eps=0.001, momentum=0.1, affine=True, track_running_stats=True)
      (relu): ReLU()
    )
  )
  (conv2d): Conv2d(96, 256, kernel_size=(1, 1), stride=(1, 1))
  (relu): ReLU()
)
repeat_1.0.branch0: BasicConv2d(
  (conv): Conv2d(256, 32, kernel_size=(1, 1), stride=(1, 1), bias=False)
  (bn): BatchNorm2d(32, eps=0.001, momentum=0.1, affine=True, track_running_stats=True)
  (relu): ReLU()
)
repeat_1.0.branch0.conv: Conv2d(256, 32, kernel_size=(1, 1), stride=(1, 1), bias=False)
repeat_1.0.branch0.bn: BatchNorm2d(32, eps=0.001, momentum=0.1, affine=True, track_running_stats=True)
repeat_1.0.branch0.relu: ReLU()
repeat_1.0.branch1: Sequential(
  (0): BasicConv2d(
    (conv): Conv2d(256, 32, kernel_size=(1, 1), stride=(1, 1), bias=False)
    (bn): BatchNorm2d(32, eps=0.001, momentum=0.1, affine=True, track_running_stats=True)
    (relu): ReLU()
  )
  (1): BasicConv2d(
    (conv): Conv2d(32, 32, kernel_size=(3, 3), stride=(1, 1), padding=(1, 1), bias=False)
    (bn): BatchNorm2d(32, eps=0.001, momentum=0.1, affine=True, track_running_stats=True)
    (relu): ReLU()
  )
)
repeat_1.0.branch1.0: BasicConv2d(
  (conv): Conv2d(256, 32, kernel_size=(1, 1), stride=(1, 1), bias=False)
  (bn): BatchNorm2d(32, eps=0.001, momentum=0.1, affine=True, track_running_stats=True)
  (relu): ReLU()
)
repeat_1.0.branch1.0.conv: Conv2d(256, 32, kernel_size=(1, 1), stride=(1, 1), bias=False)
repeat_1.0.branch1.0.bn: BatchNorm2d(32, eps=0.001, momentum=0.1, affine=True, track_running_stats=True)
repeat_1.0.branch1.0.relu: ReLU()
repeat_1.0.branch1.1: BasicConv2d(
  (conv): Conv2d(32, 32, kernel_size=(3, 3), stride=(1, 1), padding=(1, 1), bias=False)
  (bn): BatchNorm2d(32, eps=0.001, momentum=0.1, affine=True, track_running_stats=True)
  (relu): ReLU()
)
repeat_1.0.branch1.1.conv: Conv2d(32, 32, kernel_size=(3, 3), stride=(1, 1), padding=(1, 1), bias=False)
repeat_1.0.branch1.1.bn: BatchNorm2d(32, eps=0.001, momentum=0.1, affine=True, track_running_stats=True)
repeat_1.0.branch1.1.relu: ReLU()
repeat_1.0.branch2: Sequential(
  (0): BasicConv2d(
    (conv): Conv2d(256, 32, kernel_size=(1, 1), stride=(1, 1), bias=False)
    (bn): BatchNorm2d(32, eps=0.001, momentum=0.1, affine=True, track_running_stats=True)
    (relu): ReLU()
  )
  (1): BasicConv2d(
    (conv): Conv2d(32, 32, kernel_size=(3, 3), stride=(1, 1), padding=(1, 1), bias=False)
    (bn): BatchNorm2d(32, eps=0.001, momentum=0.1, affine=True, track_running_stats=True)
    (relu): ReLU()
  )
  (2): BasicConv2d(
    (conv): Conv2d(32, 32, kernel_size=(3, 3), stride=(1, 1), padding=(1, 1), bias=False)
    (bn): BatchNorm2d(32, eps=0.001, momentum=0.1, affine=True, track_running_stats=True)
    (relu): ReLU()
  )
)
repeat_1.0.branch2.0: BasicConv2d(
  (conv): Conv2d(256, 32, kernel_size=(1, 1), stride=(1, 1), bias=False)
  (bn): BatchNorm2d(32, eps=0.001, momentum=0.1, affine=True, track_running_stats=True)
  (relu): ReLU()
)
repeat_1.0.branch2.0.conv: Conv2d(256, 32, kernel_size=(1, 1), stride=(1, 1), bias=False)
repeat_1.0.branch2.0.bn: BatchNorm2d(32, eps=0.001, momentum=0.1, affine=True, track_running_stats=True)
repeat_1.0.branch2.0.relu: ReLU()
repeat_1.0.branch2.1: BasicConv2d(
  (conv): Conv2d(32, 32, kernel_size=(3, 3), stride=(1, 1), padding=(1, 1), bias=False)
  (bn): BatchNorm2d(32, eps=0.001, momentum=0.1, affine=True, track_running_stats=True)
  (relu): ReLU()
)
repeat_1.0.branch2.1.conv: Conv2d(32, 32, kernel_size=(3, 3), stride=(1, 1), padding=(1, 1), bias=False)
repeat_1.0.branch2.1.bn: BatchNorm2d(32, eps=0.001, momentum=0.1, affine=True, track_running_stats=True)
repeat_1.0.branch2.1.relu: ReLU()
repeat_1.0.branch2.2: BasicConv2d(
  (conv): Conv2d(32, 32, kernel_size=(3, 3), stride=(1, 1), padding=(1, 1), bias=False)
  (bn): BatchNorm2d(32, eps=0.001, momentum=0.1, affine=True, track_running_stats=True)
  (relu): ReLU()
)
repeat_1.0.branch2.2.conv: Conv2d(32, 32, kernel_size=(3, 3), stride=(1, 1), padding=(1, 1), bias=False)
repeat_1.0.branch2.2.bn: BatchNorm2d(32, eps=0.001, momentum=0.1, affine=True, track_running_stats=True)
repeat_1.0.branch2.2.relu: ReLU()
repeat_1.0.conv2d: Conv2d(96, 256, kernel_size=(1, 1), stride=(1, 1))
repeat_1.0.relu: ReLU()
repeat_1.1: Block35(
  (branch0): BasicConv2d(
    (conv): Conv2d(256, 32, kernel_size=(1, 1), stride=(1, 1), bias=False)
    (bn): BatchNorm2d(32, eps=0.001, momentum=0.1, affine=True, track_running_stats=True)
    (relu): ReLU()
  )
  (branch1): Sequential(
    (0): BasicConv2d(
      (conv): Conv2d(256, 32, kernel_size=(1, 1), stride=(1, 1), bias=False)
      (bn): BatchNorm2d(32, eps=0.001, momentum=0.1, affine=True, track_running_stats=True)
      (relu): ReLU()
    )
    (1): BasicConv2d(
      (conv): Conv2d(32, 32, kernel_size=(3, 3), stride=(1, 1), padding=(1, 1), bias=False)
      (bn): BatchNorm2d(32, eps=0.001, momentum=0.1, affine=True, track_running_stats=True)
      (relu): ReLU()
    )
  )
  (branch2): Sequential(
    (0): BasicConv2d(
      (conv): Conv2d(256, 32, kernel_size=(1, 1), stride=(1, 1), bias=False)
      (bn): BatchNorm2d(32, eps=0.001, momentum=0.1, affine=True, track_running_stats=True)
      (relu): ReLU()
    )
    (1): BasicConv2d(
      (conv): Conv2d(32, 32, kernel_size=(3, 3), stride=(1, 1), padding=(1, 1), bias=False)
      (bn): BatchNorm2d(32, eps=0.001, momentum=0.1, affine=True, track_running_stats=True)
      (relu): ReLU()
    )
    (2): BasicConv2d(
      (conv): Conv2d(32, 32, kernel_size=(3, 3), stride=(1, 1), padding=(1, 1), bias=False)
      (bn): BatchNorm2d(32, eps=0.001, momentum=0.1, affine=True, track_running_stats=True)
      (relu): ReLU()
    )
  )
  (conv2d): Conv2d(96, 256, kernel_size=(1, 1), stride=(1, 1))
  (relu): ReLU()
)
repeat_1.1.branch0: BasicConv2d(
  (conv): Conv2d(256, 32, kernel_size=(1, 1), stride=(1, 1), bias=False)
  (bn): BatchNorm2d(32, eps=0.001, momentum=0.1, affine=True, track_running_stats=True)
  (relu): ReLU()
)
repeat_1.1.branch0.conv: Conv2d(256, 32, kernel_size=(1, 1), stride=(1, 1), bias=False)
repeat_1.1.branch0.bn: BatchNorm2d(32, eps=0.001, momentum=0.1, affine=True, track_running_stats=True)
repeat_1.1.branch0.relu: ReLU()
repeat_1.1.branch1: Sequential(
  (0): BasicConv2d(
    (conv): Conv2d(256, 32, kernel_size=(1, 1), stride=(1, 1), bias=False)
    (bn): BatchNorm2d(32, eps=0.001, momentum=0.1, affine=True, track_running_stats=True)
    (relu): ReLU()
  )
  (1): BasicConv2d(
    (conv): Conv2d(32, 32, kernel_size=(3, 3), stride=(1, 1), padding=(1, 1), bias=False)
    (bn): BatchNorm2d(32, eps=0.001, momentum=0.1, affine=True, track_running_stats=True)
    (relu): ReLU()
  )
)
repeat_1.1.branch1.0: BasicConv2d(
  (conv): Conv2d(256, 32, kernel_size=(1, 1), stride=(1, 1), bias=False)
  (bn): BatchNorm2d(32, eps=0.001, momentum=0.1, affine=True, track_running_stats=True)
  (relu): ReLU()
)
repeat_1.1.branch1.0.conv: Conv2d(256, 32, kernel_size=(1, 1), stride=(1, 1), bias=False)
repeat_1.1.branch1.0.bn: BatchNorm2d(32, eps=0.001, momentum=0.1, affine=True, track_running_stats=True)
repeat_1.1.branch1.0.relu: ReLU()
repeat_1.1.branch1.1: BasicConv2d(
  (conv): Conv2d(32, 32, kernel_size=(3, 3), stride=(1, 1), padding=(1, 1), bias=False)
  (bn): BatchNorm2d(32, eps=0.001, momentum=0.1, affine=True, track_running_stats=True)
  (relu): ReLU()
)
repeat_1.1.branch1.1.conv: Conv2d(32, 32, kernel_size=(3, 3), stride=(1, 1), padding=(1, 1), bias=False)
repeat_1.1.branch1.1.bn: BatchNorm2d(32, eps=0.001, momentum=0.1, affine=True, track_running_stats=True)
repeat_1.1.branch1.1.relu: ReLU()
repeat_1.1.branch2: Sequential(
  (0): BasicConv2d(
    (conv): Conv2d(256, 32, kernel_size=(1, 1), stride=(1, 1), bias=False)
    (bn): BatchNorm2d(32, eps=0.001, momentum=0.1, affine=True, track_running_stats=True)
    (relu): ReLU()
  )
  (1): BasicConv2d(
    (conv): Conv2d(32, 32, kernel_size=(3, 3), stride=(1, 1), padding=(1, 1), bias=False)
    (bn): BatchNorm2d(32, eps=0.001, momentum=0.1, affine=True, track_running_stats=True)
    (relu): ReLU()
  )
  (2): BasicConv2d(
    (conv): Conv2d(32, 32, kernel_size=(3, 3), stride=(1, 1), padding=(1, 1), bias=False)
    (bn): BatchNorm2d(32, eps=0.001, momentum=0.1, affine=True, track_running_stats=True)
    (relu): ReLU()
  )
)
repeat_1.1.branch2.0: BasicConv2d(
  (conv): Conv2d(256, 32, kernel_size=(1, 1), stride=(1, 1), bias=False)
  (bn): BatchNorm2d(32, eps=0.001, momentum=0.1, affine=True, track_running_stats=True)
  (relu): ReLU()
)
repeat_1.1.branch2.0.conv: Conv2d(256, 32, kernel_size=(1, 1), stride=(1, 1), bias=False)
repeat_1.1.branch2.0.bn: BatchNorm2d(32, eps=0.001, momentum=0.1, affine=True, track_running_stats=True)
repeat_1.1.branch2.0.relu: ReLU()
repeat_1.1.branch2.1: BasicConv2d(
  (conv): Conv2d(32, 32, kernel_size=(3, 3), stride=(1, 1), padding=(1, 1), bias=False)
  (bn): BatchNorm2d(32, eps=0.001, momentum=0.1, affine=True, track_running_stats=True)
  (relu): ReLU()
)
repeat_1.1.branch2.1.conv: Conv2d(32, 32, kernel_size=(3, 3), stride=(1, 1), padding=(1, 1), bias=False)
repeat_1.1.branch2.1.bn: BatchNorm2d(32, eps=0.001, momentum=0.1, affine=True, track_running_stats=True)
repeat_1.1.branch2.1.relu: ReLU()
repeat_1.1.branch2.2: BasicConv2d(
  (conv): Conv2d(32, 32, kernel_size=(3, 3), stride=(1, 1), padding=(1, 1), bias=False)
  (bn): BatchNorm2d(32, eps=0.001, momentum=0.1, affine=True, track_running_stats=True)
  (relu): ReLU()
)
repeat_1.1.branch2.2.conv: Conv2d(32, 32, kernel_size=(3, 3), stride=(1, 1), padding=(1, 1), bias=False)
repeat_1.1.branch2.2.bn: BatchNorm2d(32, eps=0.001, momentum=0.1, affine=True, track_running_stats=True)
repeat_1.1.branch2.2.relu: ReLU()
repeat_1.1.conv2d: Conv2d(96, 256, kernel_size=(1, 1), stride=(1, 1))
repeat_1.1.relu: ReLU()
repeat_1.2: Block35(
  (branch0): BasicConv2d(
    (conv): Conv2d(256, 32, kernel_size=(1, 1), stride=(1, 1), bias=False)
    (bn): BatchNorm2d(32, eps=0.001, momentum=0.1, affine=True, track_running_stats=True)
    (relu): ReLU()
  )
  (branch1): Sequential(
    (0): BasicConv2d(
      (conv): Conv2d(256, 32, kernel_size=(1, 1), stride=(1, 1), bias=False)
      (bn): BatchNorm2d(32, eps=0.001, momentum=0.1, affine=True, track_running_stats=True)
      (relu): ReLU()
    )
    (1): BasicConv2d(
      (conv): Conv2d(32, 32, kernel_size=(3, 3), stride=(1, 1), padding=(1, 1), bias=False)
      (bn): BatchNorm2d(32, eps=0.001, momentum=0.1, affine=True, track_running_stats=True)
      (relu): ReLU()
    )
  )
  (branch2): Sequential(
    (0): BasicConv2d(
      (conv): Conv2d(256, 32, kernel_size=(1, 1), stride=(1, 1), bias=False)
      (bn): BatchNorm2d(32, eps=0.001, momentum=0.1, affine=True, track_running_stats=True)
      (relu): ReLU()
    )
    (1): BasicConv2d(
      (conv): Conv2d(32, 32, kernel_size=(3, 3), stride=(1, 1), padding=(1, 1), bias=False)
      (bn): BatchNorm2d(32, eps=0.001, momentum=0.1, affine=True, track_running_stats=True)
      (relu): ReLU()
    )
    (2): BasicConv2d(
      (conv): Conv2d(32, 32, kernel_size=(3, 3), stride=(1, 1), padding=(1, 1), bias=False)
      (bn): BatchNorm2d(32, eps=0.001, momentum=0.1, affine=True, track_running_stats=True)
      (relu): ReLU()
    )
  )
  (conv2d): Conv2d(96, 256, kernel_size=(1, 1), stride=(1, 1))
  (relu): ReLU()
)
repeat_1.2.branch0: BasicConv2d(
  (conv): Conv2d(256, 32, kernel_size=(1, 1), stride=(1, 1), bias=False)
  (bn): BatchNorm2d(32, eps=0.001, momentum=0.1, affine=True, track_running_stats=True)
  (relu): ReLU()
)
repeat_1.2.branch0.conv: Conv2d(256, 32, kernel_size=(1, 1), stride=(1, 1), bias=False)
repeat_1.2.branch0.bn: BatchNorm2d(32, eps=0.001, momentum=0.1, affine=True, track_running_stats=True)
repeat_1.2.branch0.relu: ReLU()
repeat_1.2.branch1: Sequential(
  (0): BasicConv2d(
    (conv): Conv2d(256, 32, kernel_size=(1, 1), stride=(1, 1), bias=False)
    (bn): BatchNorm2d(32, eps=0.001, momentum=0.1, affine=True, track_running_stats=True)
    (relu): ReLU()
  )
  (1): BasicConv2d(
    (conv): Conv2d(32, 32, kernel_size=(3, 3), stride=(1, 1), padding=(1, 1), bias=False)
    (bn): BatchNorm2d(32, eps=0.001, momentum=0.1, affine=True, track_running_stats=True)
    (relu): ReLU()
  )
)
repeat_1.2.branch1.0: BasicConv2d(
  (conv): Conv2d(256, 32, kernel_size=(1, 1), stride=(1, 1), bias=False)
  (bn): BatchNorm2d(32, eps=0.001, momentum=0.1, affine=True, track_running_stats=True)
  (relu): ReLU()
)
repeat_1.2.branch1.0.conv: Conv2d(256, 32, kernel_size=(1, 1), stride=(1, 1), bias=False)
repeat_1.2.branch1.0.bn: BatchNorm2d(32, eps=0.001, momentum=0.1, affine=True, track_running_stats=True)
repeat_1.2.branch1.0.relu: ReLU()
repeat_1.2.branch1.1: BasicConv2d(
  (conv): Conv2d(32, 32, kernel_size=(3, 3), stride=(1, 1), padding=(1, 1), bias=False)
  (bn): BatchNorm2d(32, eps=0.001, momentum=0.1, affine=True, track_running_stats=True)
  (relu): ReLU()
)
repeat_1.2.branch1.1.conv: Conv2d(32, 32, kernel_size=(3, 3), stride=(1, 1), padding=(1, 1), bias=False)
repeat_1.2.branch1.1.bn: BatchNorm2d(32, eps=0.001, momentum=0.1, affine=True, track_running_stats=True)
repeat_1.2.branch1.1.relu: ReLU()
repeat_1.2.branch2: Sequential(
  (0): BasicConv2d(
    (conv): Conv2d(256, 32, kernel_size=(1, 1), stride=(1, 1), bias=False)
    (bn): BatchNorm2d(32, eps=0.001, momentum=0.1, affine=True, track_running_stats=True)
    (relu): ReLU()
  )
  (1): BasicConv2d(
    (conv): Conv2d(32, 32, kernel_size=(3, 3), stride=(1, 1), padding=(1, 1), bias=False)
    (bn): BatchNorm2d(32, eps=0.001, momentum=0.1, affine=True, track_running_stats=True)
    (relu): ReLU()
  )
  (2): BasicConv2d(
    (conv): Conv2d(32, 32, kernel_size=(3, 3), stride=(1, 1), padding=(1, 1), bias=False)
    (bn): BatchNorm2d(32, eps=0.001, momentum=0.1, affine=True, track_running_stats=True)
    (relu): ReLU()
  )
)
repeat_1.2.branch2.0: BasicConv2d(
  (conv): Conv2d(256, 32, kernel_size=(1, 1), stride=(1, 1), bias=False)
  (bn): BatchNorm2d(32, eps=0.001, momentum=0.1, affine=True, track_running_stats=True)
  (relu): ReLU()
)
repeat_1.2.branch2.0.conv: Conv2d(256, 32, kernel_size=(1, 1), stride=(1, 1), bias=False)
repeat_1.2.branch2.0.bn: BatchNorm2d(32, eps=0.001, momentum=0.1, affine=True, track_running_stats=True)
repeat_1.2.branch2.0.relu: ReLU()
repeat_1.2.branch2.1: BasicConv2d(
  (conv): Conv2d(32, 32, kernel_size=(3, 3), stride=(1, 1), padding=(1, 1), bias=False)
  (bn): BatchNorm2d(32, eps=0.001, momentum=0.1, affine=True, track_running_stats=True)
  (relu): ReLU()
)
repeat_1.2.branch2.1.conv: Conv2d(32, 32, kernel_size=(3, 3), stride=(1, 1), padding=(1, 1), bias=False)
repeat_1.2.branch2.1.bn: BatchNorm2d(32, eps=0.001, momentum=0.1, affine=True, track_running_stats=True)
repeat_1.2.branch2.1.relu: ReLU()
repeat_1.2.branch2.2: BasicConv2d(
  (conv): Conv2d(32, 32, kernel_size=(3, 3), stride=(1, 1), padding=(1, 1), bias=False)
  (bn): BatchNorm2d(32, eps=0.001, momentum=0.1, affine=True, track_running_stats=True)
  (relu): ReLU()
)
repeat_1.2.branch2.2.conv: Conv2d(32, 32, kernel_size=(3, 3), stride=(1, 1), padding=(1, 1), bias=False)
repeat_1.2.branch2.2.bn: BatchNorm2d(32, eps=0.001, momentum=0.1, affine=True, track_running_stats=True)
repeat_1.2.branch2.2.relu: ReLU()
repeat_1.2.conv2d: Conv2d(96, 256, kernel_size=(1, 1), stride=(1, 1))
repeat_1.2.relu: ReLU()
repeat_1.3: Block35(
  (branch0): BasicConv2d(
    (conv): Conv2d(256, 32, kernel_size=(1, 1), stride=(1, 1), bias=False)
    (bn): BatchNorm2d(32, eps=0.001, momentum=0.1, affine=True, track_running_stats=True)
    (relu): ReLU()
  )
  (branch1): Sequential(
    (0): BasicConv2d(
      (conv): Conv2d(256, 32, kernel_size=(1, 1), stride=(1, 1), bias=False)
      (bn): BatchNorm2d(32, eps=0.001, momentum=0.1, affine=True, track_running_stats=True)
      (relu): ReLU()
    )
    (1): BasicConv2d(
      (conv): Conv2d(32, 32, kernel_size=(3, 3), stride=(1, 1), padding=(1, 1), bias=False)
      (bn): BatchNorm2d(32, eps=0.001, momentum=0.1, affine=True, track_running_stats=True)
      (relu): ReLU()
    )
  )
  (branch2): Sequential(
    (0): BasicConv2d(
      (conv): Conv2d(256, 32, kernel_size=(1, 1), stride=(1, 1), bias=False)
      (bn): BatchNorm2d(32, eps=0.001, momentum=0.1, affine=True, track_running_stats=True)
      (relu): ReLU()
    )
    (1): BasicConv2d(
      (conv): Conv2d(32, 32, kernel_size=(3, 3), stride=(1, 1), padding=(1, 1), bias=False)
      (bn): BatchNorm2d(32, eps=0.001, momentum=0.1, affine=True, track_running_stats=True)
      (relu): ReLU()
    )
    (2): BasicConv2d(
      (conv): Conv2d(32, 32, kernel_size=(3, 3), stride=(1, 1), padding=(1, 1), bias=False)
      (bn): BatchNorm2d(32, eps=0.001, momentum=0.1, affine=True, track_running_stats=True)
      (relu): ReLU()
    )
  )
  (conv2d): Conv2d(96, 256, kernel_size=(1, 1), stride=(1, 1))
  (relu): ReLU()
)
repeat_1.3.branch0: BasicConv2d(
  (conv): Conv2d(256, 32, kernel_size=(1, 1), stride=(1, 1), bias=False)
  (bn): BatchNorm2d(32, eps=0.001, momentum=0.1, affine=True, track_running_stats=True)
  (relu): ReLU()
)
repeat_1.3.branch0.conv: Conv2d(256, 32, kernel_size=(1, 1), stride=(1, 1), bias=False)
repeat_1.3.branch0.bn: BatchNorm2d(32, eps=0.001, momentum=0.1, affine=True, track_running_stats=True)
repeat_1.3.branch0.relu: ReLU()
repeat_1.3.branch1: Sequential(
  (0): BasicConv2d(
    (conv): Conv2d(256, 32, kernel_size=(1, 1), stride=(1, 1), bias=False)
    (bn): BatchNorm2d(32, eps=0.001, momentum=0.1, affine=True, track_running_stats=True)
    (relu): ReLU()
  )
  (1): BasicConv2d(
    (conv): Conv2d(32, 32, kernel_size=(3, 3), stride=(1, 1), padding=(1, 1), bias=False)
    (bn): BatchNorm2d(32, eps=0.001, momentum=0.1, affine=True, track_running_stats=True)
    (relu): ReLU()
  )
)
repeat_1.3.branch1.0: BasicConv2d(
  (conv): Conv2d(256, 32, kernel_size=(1, 1), stride=(1, 1), bias=False)
  (bn): BatchNorm2d(32, eps=0.001, momentum=0.1, affine=True, track_running_stats=True)
  (relu): ReLU()
)
repeat_1.3.branch1.0.conv: Conv2d(256, 32, kernel_size=(1, 1), stride=(1, 1), bias=False)
repeat_1.3.branch1.0.bn: BatchNorm2d(32, eps=0.001, momentum=0.1, affine=True, track_running_stats=True)
repeat_1.3.branch1.0.relu: ReLU()
repeat_1.3.branch1.1: BasicConv2d(
  (conv): Conv2d(32, 32, kernel_size=(3, 3), stride=(1, 1), padding=(1, 1), bias=False)
  (bn): BatchNorm2d(32, eps=0.001, momentum=0.1, affine=True, track_running_stats=True)
  (relu): ReLU()
)
repeat_1.3.branch1.1.conv: Conv2d(32, 32, kernel_size=(3, 3), stride=(1, 1), padding=(1, 1), bias=False)
repeat_1.3.branch1.1.bn: BatchNorm2d(32, eps=0.001, momentum=0.1, affine=True, track_running_stats=True)
repeat_1.3.branch1.1.relu: ReLU()
repeat_1.3.branch2: Sequential(
  (0): BasicConv2d(
    (conv): Conv2d(256, 32, kernel_size=(1, 1), stride=(1, 1), bias=False)
    (bn): BatchNorm2d(32, eps=0.001, momentum=0.1, affine=True, track_running_stats=True)
    (relu): ReLU()
  )
  (1): BasicConv2d(
    (conv): Conv2d(32, 32, kernel_size=(3, 3), stride=(1, 1), padding=(1, 1), bias=False)
    (bn): BatchNorm2d(32, eps=0.001, momentum=0.1, affine=True, track_running_stats=True)
    (relu): ReLU()
  )
  (2): BasicConv2d(
    (conv): Conv2d(32, 32, kernel_size=(3, 3), stride=(1, 1), padding=(1, 1), bias=False)
    (bn): BatchNorm2d(32, eps=0.001, momentum=0.1, affine=True, track_running_stats=True)
    (relu): ReLU()
  )
)
repeat_1.3.branch2.0: BasicConv2d(
  (conv): Conv2d(256, 32, kernel_size=(1, 1), stride=(1, 1), bias=False)
  (bn): BatchNorm2d(32, eps=0.001, momentum=0.1, affine=True, track_running_stats=True)
  (relu): ReLU()
)
repeat_1.3.branch2.0.conv: Conv2d(256, 32, kernel_size=(1, 1), stride=(1, 1), bias=False)
repeat_1.3.branch2.0.bn: BatchNorm2d(32, eps=0.001, momentum=0.1, affine=True, track_running_stats=True)
repeat_1.3.branch2.0.relu: ReLU()
repeat_1.3.branch2.1: BasicConv2d(
  (conv): Conv2d(32, 32, kernel_size=(3, 3), stride=(1, 1), padding=(1, 1), bias=False)
  (bn): BatchNorm2d(32, eps=0.001, momentum=0.1, affine=True, track_running_stats=True)
  (relu): ReLU()
)
repeat_1.3.branch2.1.conv: Conv2d(32, 32, kernel_size=(3, 3), stride=(1, 1), padding=(1, 1), bias=False)
repeat_1.3.branch2.1.bn: BatchNorm2d(32, eps=0.001, momentum=0.1, affine=True, track_running_stats=True)
repeat_1.3.branch2.1.relu: ReLU()
repeat_1.3.branch2.2: BasicConv2d(
  (conv): Conv2d(32, 32, kernel_size=(3, 3), stride=(1, 1), padding=(1, 1), bias=False)
  (bn): BatchNorm2d(32, eps=0.001, momentum=0.1, affine=True, track_running_stats=True)
  (relu): ReLU()
)
repeat_1.3.branch2.2.conv: Conv2d(32, 32, kernel_size=(3, 3), stride=(1, 1), padding=(1, 1), bias=False)
repeat_1.3.branch2.2.bn: BatchNorm2d(32, eps=0.001, momentum=0.1, affine=True, track_running_stats=True)
repeat_1.3.branch2.2.relu: ReLU()
repeat_1.3.conv2d: Conv2d(96, 256, kernel_size=(1, 1), stride=(1, 1))
repeat_1.3.relu: ReLU()
repeat_1.4: Block35(
  (branch0): BasicConv2d(
    (conv): Conv2d(256, 32, kernel_size=(1, 1), stride=(1, 1), bias=False)
    (bn): BatchNorm2d(32, eps=0.001, momentum=0.1, affine=True, track_running_stats=True)
    (relu): ReLU()
  )
  (branch1): Sequential(
    (0): BasicConv2d(
      (conv): Conv2d(256, 32, kernel_size=(1, 1), stride=(1, 1), bias=False)
      (bn): BatchNorm2d(32, eps=0.001, momentum=0.1, affine=True, track_running_stats=True)
      (relu): ReLU()
    )
    (1): BasicConv2d(
      (conv): Conv2d(32, 32, kernel_size=(3, 3), stride=(1, 1), padding=(1, 1), bias=False)
      (bn): BatchNorm2d(32, eps=0.001, momentum=0.1, affine=True, track_running_stats=True)
      (relu): ReLU()
    )
  )
  (branch2): Sequential(
    (0): BasicConv2d(
      (conv): Conv2d(256, 32, kernel_size=(1, 1), stride=(1, 1), bias=False)
      (bn): BatchNorm2d(32, eps=0.001, momentum=0.1, affine=True, track_running_stats=True)
      (relu): ReLU()
    )
    (1): BasicConv2d(
      (conv): Conv2d(32, 32, kernel_size=(3, 3), stride=(1, 1), padding=(1, 1), bias=False)
      (bn): BatchNorm2d(32, eps=0.001, momentum=0.1, affine=True, track_running_stats=True)
      (relu): ReLU()
    )
    (2): BasicConv2d(
      (conv): Conv2d(32, 32, kernel_size=(3, 3), stride=(1, 1), padding=(1, 1), bias=False)
      (bn): BatchNorm2d(32, eps=0.001, momentum=0.1, affine=True, track_running_stats=True)
      (relu): ReLU()
    )
  )
  (conv2d): Conv2d(96, 256, kernel_size=(1, 1), stride=(1, 1))
  (relu): ReLU()
)
repeat_1.4.branch0: BasicConv2d(
  (conv): Conv2d(256, 32, kernel_size=(1, 1), stride=(1, 1), bias=False)
  (bn): BatchNorm2d(32, eps=0.001, momentum=0.1, affine=True, track_running_stats=True)
  (relu): ReLU()
)
repeat_1.4.branch0.conv: Conv2d(256, 32, kernel_size=(1, 1), stride=(1, 1), bias=False)
repeat_1.4.branch0.bn: BatchNorm2d(32, eps=0.001, momentum=0.1, affine=True, track_running_stats=True)
repeat_1.4.branch0.relu: ReLU()
repeat_1.4.branch1: Sequential(
  (0): BasicConv2d(
    (conv): Conv2d(256, 32, kernel_size=(1, 1), stride=(1, 1), bias=False)
    (bn): BatchNorm2d(32, eps=0.001, momentum=0.1, affine=True, track_running_stats=True)
    (relu): ReLU()
  )
  (1): BasicConv2d(
    (conv): Conv2d(32, 32, kernel_size=(3, 3), stride=(1, 1), padding=(1, 1), bias=False)
    (bn): BatchNorm2d(32, eps=0.001, momentum=0.1, affine=True, track_running_stats=True)
    (relu): ReLU()
  )
)
repeat_1.4.branch1.0: BasicConv2d(
  (conv): Conv2d(256, 32, kernel_size=(1, 1), stride=(1, 1), bias=False)
  (bn): BatchNorm2d(32, eps=0.001, momentum=0.1, affine=True, track_running_stats=True)
  (relu): ReLU()
)
repeat_1.4.branch1.0.conv: Conv2d(256, 32, kernel_size=(1, 1), stride=(1, 1), bias=False)
repeat_1.4.branch1.0.bn: BatchNorm2d(32, eps=0.001, momentum=0.1, affine=True, track_running_stats=True)
repeat_1.4.branch1.0.relu: ReLU()
repeat_1.4.branch1.1: BasicConv2d(
  (conv): Conv2d(32, 32, kernel_size=(3, 3), stride=(1, 1), padding=(1, 1), bias=False)
  (bn): BatchNorm2d(32, eps=0.001, momentum=0.1, affine=True, track_running_stats=True)
  (relu): ReLU()
)
repeat_1.4.branch1.1.conv: Conv2d(32, 32, kernel_size=(3, 3), stride=(1, 1), padding=(1, 1), bias=False)
repeat_1.4.branch1.1.bn: BatchNorm2d(32, eps=0.001, momentum=0.1, affine=True, track_running_stats=True)
repeat_1.4.branch1.1.relu: ReLU()
repeat_1.4.branch2: Sequential(
  (0): BasicConv2d(
    (conv): Conv2d(256, 32, kernel_size=(1, 1), stride=(1, 1), bias=False)
    (bn): BatchNorm2d(32, eps=0.001, momentum=0.1, affine=True, track_running_stats=True)
    (relu): ReLU()
  )
  (1): BasicConv2d(
    (conv): Conv2d(32, 32, kernel_size=(3, 3), stride=(1, 1), padding=(1, 1), bias=False)
    (bn): BatchNorm2d(32, eps=0.001, momentum=0.1, affine=True, track_running_stats=True)
    (relu): ReLU()
  )
  (2): BasicConv2d(
    (conv): Conv2d(32, 32, kernel_size=(3, 3), stride=(1, 1), padding=(1, 1), bias=False)
    (bn): BatchNorm2d(32, eps=0.001, momentum=0.1, affine=True, track_running_stats=True)
    (relu): ReLU()
  )
)
repeat_1.4.branch2.0: BasicConv2d(
  (conv): Conv2d(256, 32, kernel_size=(1, 1), stride=(1, 1), bias=False)
  (bn): BatchNorm2d(32, eps=0.001, momentum=0.1, affine=True, track_running_stats=True)
  (relu): ReLU()
)
repeat_1.4.branch2.0.conv: Conv2d(256, 32, kernel_size=(1, 1), stride=(1, 1), bias=False)
repeat_1.4.branch2.0.bn: BatchNorm2d(32, eps=0.001, momentum=0.1, affine=True, track_running_stats=True)
repeat_1.4.branch2.0.relu: ReLU()
repeat_1.4.branch2.1: BasicConv2d(
  (conv): Conv2d(32, 32, kernel_size=(3, 3), stride=(1, 1), padding=(1, 1), bias=False)
  (bn): BatchNorm2d(32, eps=0.001, momentum=0.1, affine=True, track_running_stats=True)
  (relu): ReLU()
)
repeat_1.4.branch2.1.conv: Conv2d(32, 32, kernel_size=(3, 3), stride=(1, 1), padding=(1, 1), bias=False)
repeat_1.4.branch2.1.bn: BatchNorm2d(32, eps=0.001, momentum=0.1, affine=True, track_running_stats=True)
repeat_1.4.branch2.1.relu: ReLU()
repeat_1.4.branch2.2: BasicConv2d(
  (conv): Conv2d(32, 32, kernel_size=(3, 3), stride=(1, 1), padding=(1, 1), bias=False)
  (bn): BatchNorm2d(32, eps=0.001, momentum=0.1, affine=True, track_running_stats=True)
  (relu): ReLU()
)
repeat_1.4.branch2.2.conv: Conv2d(32, 32, kernel_size=(3, 3), stride=(1, 1), padding=(1, 1), bias=False)
repeat_1.4.branch2.2.bn: BatchNorm2d(32, eps=0.001, momentum=0.1, affine=True, track_running_stats=True)
repeat_1.4.branch2.2.relu: ReLU()
repeat_1.4.conv2d: Conv2d(96, 256, kernel_size=(1, 1), stride=(1, 1))
repeat_1.4.relu: ReLU()
mixed_6a: Mixed_6a(
  (branch0): BasicConv2d(
    (conv): Conv2d(256, 384, kernel_size=(3, 3), stride=(2, 2), bias=False)
    (bn): BatchNorm2d(384, eps=0.001, momentum=0.1, affine=True, track_running_stats=True)
    (relu): ReLU()
  )
  (branch1): Sequential(
    (0): BasicConv2d(
      (conv): Conv2d(256, 192, kernel_size=(1, 1), stride=(1, 1), bias=False)
      (bn): BatchNorm2d(192, eps=0.001, momentum=0.1, affine=True, track_running_stats=True)
      (relu): ReLU()
    )
    (1): BasicConv2d(
      (conv): Conv2d(192, 192, kernel_size=(3, 3), stride=(1, 1), padding=(1, 1), bias=False)
      (bn): BatchNorm2d(192, eps=0.001, momentum=0.1, affine=True, track_running_stats=True)
      (relu): ReLU()
    )
    (2): BasicConv2d(
      (conv): Conv2d(192, 256, kernel_size=(3, 3), stride=(2, 2), bias=False)
      (bn): BatchNorm2d(256, eps=0.001, momentum=0.1, affine=True, track_running_stats=True)
      (relu): ReLU()
    )
  )
  (branch2): MaxPool2d(kernel_size=3, stride=2, padding=0, dilation=1, ceil_mode=False)
)
mixed_6a.branch0: BasicConv2d(
  (conv): Conv2d(256, 384, kernel_size=(3, 3), stride=(2, 2), bias=False)
  (bn): BatchNorm2d(384, eps=0.001, momentum=0.1, affine=True, track_running_stats=True)
  (relu): ReLU()
)
mixed_6a.branch0.conv: Conv2d(256, 384, kernel_size=(3, 3), stride=(2, 2), bias=False)
mixed_6a.branch0.bn: BatchNorm2d(384, eps=0.001, momentum=0.1, affine=True, track_running_stats=True)
mixed_6a.branch0.relu: ReLU()
mixed_6a.branch1: Sequential(
  (0): BasicConv2d(
    (conv): Conv2d(256, 192, kernel_size=(1, 1), stride=(1, 1), bias=False)
    (bn): BatchNorm2d(192, eps=0.001, momentum=0.1, affine=True, track_running_stats=True)
    (relu): ReLU()
  )
  (1): BasicConv2d(
    (conv): Conv2d(192, 192, kernel_size=(3, 3), stride=(1, 1), padding=(1, 1), bias=False)
    (bn): BatchNorm2d(192, eps=0.001, momentum=0.1, affine=True, track_running_stats=True)
    (relu): ReLU()
  )
  (2): BasicConv2d(
    (conv): Conv2d(192, 256, kernel_size=(3, 3), stride=(2, 2), bias=False)
    (bn): BatchNorm2d(256, eps=0.001, momentum=0.1, affine=True, track_running_stats=True)
    (relu): ReLU()
  )
)
mixed_6a.branch1.0: BasicConv2d(
  (conv): Conv2d(256, 192, kernel_size=(1, 1), stride=(1, 1), bias=False)
  (bn): BatchNorm2d(192, eps=0.001, momentum=0.1, affine=True, track_running_stats=True)
  (relu): ReLU()
)
mixed_6a.branch1.0.conv: Conv2d(256, 192, kernel_size=(1, 1), stride=(1, 1), bias=False)
mixed_6a.branch1.0.bn: BatchNorm2d(192, eps=0.001, momentum=0.1, affine=True, track_running_stats=True)
mixed_6a.branch1.0.relu: ReLU()
mixed_6a.branch1.1: BasicConv2d(
  (conv): Conv2d(192, 192, kernel_size=(3, 3), stride=(1, 1), padding=(1, 1), bias=False)
  (bn): BatchNorm2d(192, eps=0.001, momentum=0.1, affine=True, track_running_stats=True)
  (relu): ReLU()
)
mixed_6a.branch1.1.conv: Conv2d(192, 192, kernel_size=(3, 3), stride=(1, 1), padding=(1, 1), bias=False)
mixed_6a.branch1.1.bn: BatchNorm2d(192, eps=0.001, momentum=0.1, affine=True, track_running_stats=True)
mixed_6a.branch1.1.relu: ReLU()
mixed_6a.branch1.2: BasicConv2d(
  (conv): Conv2d(192, 256, kernel_size=(3, 3), stride=(2, 2), bias=False)
  (bn): BatchNorm2d(256, eps=0.001, momentum=0.1, affine=True, track_running_stats=True)
  (relu): ReLU()
)
mixed_6a.branch1.2.conv: Conv2d(192, 256, kernel_size=(3, 3), stride=(2, 2), bias=False)
mixed_6a.branch1.2.bn: BatchNorm2d(256, eps=0.001, momentum=0.1, affine=True, track_running_stats=True)
mixed_6a.branch1.2.relu: ReLU()
mixed_6a.branch2: MaxPool2d(kernel_size=3, stride=2, padding=0, dilation=1, ceil_mode=False)
repeat_2: Sequential(
  (0): Block17(
    (branch0): BasicConv2d(
      (conv): Conv2d(896, 128, kernel_size=(1, 1), stride=(1, 1), bias=False)
      (bn): BatchNorm2d(128, eps=0.001, momentum=0.1, affine=True, track_running_stats=True)
      (relu): ReLU()
    )
    (branch1): Sequential(
      (0): BasicConv2d(
        (conv): Conv2d(896, 128, kernel_size=(1, 1), stride=(1, 1), bias=False)
        (bn): BatchNorm2d(128, eps=0.001, momentum=0.1, affine=True, track_running_stats=True)
        (relu): ReLU()
      )
      (1): BasicConv2d(
        (conv): Conv2d(128, 128, kernel_size=(1, 7), stride=(1, 1), padding=(0, 3), bias=False)
        (bn): BatchNorm2d(128, eps=0.001, momentum=0.1, affine=True, track_running_stats=True)
        (relu): ReLU()
      )
      (2): BasicConv2d(
        (conv): Conv2d(128, 128, kernel_size=(7, 1), stride=(1, 1), padding=(3, 0), bias=False)
        (bn): BatchNorm2d(128, eps=0.001, momentum=0.1, affine=True, track_running_stats=True)
        (relu): ReLU()
      )
    )
    (conv2d): Conv2d(256, 896, kernel_size=(1, 1), stride=(1, 1))
    (relu): ReLU()
  )
  (1): Block17(
    (branch0): BasicConv2d(
      (conv): Conv2d(896, 128, kernel_size=(1, 1), stride=(1, 1), bias=False)
      (bn): BatchNorm2d(128, eps=0.001, momentum=0.1, affine=True, track_running_stats=True)
      (relu): ReLU()
    )
    (branch1): Sequential(
      (0): BasicConv2d(
        (conv): Conv2d(896, 128, kernel_size=(1, 1), stride=(1, 1), bias=False)
        (bn): BatchNorm2d(128, eps=0.001, momentum=0.1, affine=True, track_running_stats=True)
        (relu): ReLU()
      )
      (1): BasicConv2d(
        (conv): Conv2d(128, 128, kernel_size=(1, 7), stride=(1, 1), padding=(0, 3), bias=False)
        (bn): BatchNorm2d(128, eps=0.001, momentum=0.1, affine=True, track_running_stats=True)
        (relu): ReLU()
      )
      (2): BasicConv2d(
        (conv): Conv2d(128, 128, kernel_size=(7, 1), stride=(1, 1), padding=(3, 0), bias=False)
        (bn): BatchNorm2d(128, eps=0.001, momentum=0.1, affine=True, track_running_stats=True)
        (relu): ReLU()
      )
    )
    (conv2d): Conv2d(256, 896, kernel_size=(1, 1), stride=(1, 1))
    (relu): ReLU()
  )
  (2): Block17(
    (branch0): BasicConv2d(
      (conv): Conv2d(896, 128, kernel_size=(1, 1), stride=(1, 1), bias=False)
      (bn): BatchNorm2d(128, eps=0.001, momentum=0.1, affine=True, track_running_stats=True)
      (relu): ReLU()
    )
    (branch1): Sequential(
      (0): BasicConv2d(
        (conv): Conv2d(896, 128, kernel_size=(1, 1), stride=(1, 1), bias=False)
        (bn): BatchNorm2d(128, eps=0.001, momentum=0.1, affine=True, track_running_stats=True)
        (relu): ReLU()
      )
      (1): BasicConv2d(
        (conv): Conv2d(128, 128, kernel_size=(1, 7), stride=(1, 1), padding=(0, 3), bias=False)
        (bn): BatchNorm2d(128, eps=0.001, momentum=0.1, affine=True, track_running_stats=True)
        (relu): ReLU()
      )
      (2): BasicConv2d(
        (conv): Conv2d(128, 128, kernel_size=(7, 1), stride=(1, 1), padding=(3, 0), bias=False)
        (bn): BatchNorm2d(128, eps=0.001, momentum=0.1, affine=True, track_running_stats=True)
        (relu): ReLU()
      )
    )
    (conv2d): Conv2d(256, 896, kernel_size=(1, 1), stride=(1, 1))
    (relu): ReLU()
  )
  (3): Block17(
    (branch0): BasicConv2d(
      (conv): Conv2d(896, 128, kernel_size=(1, 1), stride=(1, 1), bias=False)
      (bn): BatchNorm2d(128, eps=0.001, momentum=0.1, affine=True, track_running_stats=True)
      (relu): ReLU()
    )
    (branch1): Sequential(
      (0): BasicConv2d(
        (conv): Conv2d(896, 128, kernel_size=(1, 1), stride=(1, 1), bias=False)
        (bn): BatchNorm2d(128, eps=0.001, momentum=0.1, affine=True, track_running_stats=True)
        (relu): ReLU()
      )
      (1): BasicConv2d(
        (conv): Conv2d(128, 128, kernel_size=(1, 7), stride=(1, 1), padding=(0, 3), bias=False)
        (bn): BatchNorm2d(128, eps=0.001, momentum=0.1, affine=True, track_running_stats=True)
        (relu): ReLU()
      )
      (2): BasicConv2d(
        (conv): Conv2d(128, 128, kernel_size=(7, 1), stride=(1, 1), padding=(3, 0), bias=False)
        (bn): BatchNorm2d(128, eps=0.001, momentum=0.1, affine=True, track_running_stats=True)
        (relu): ReLU()
      )
    )
    (conv2d): Conv2d(256, 896, kernel_size=(1, 1), stride=(1, 1))
    (relu): ReLU()
  )
  (4): Block17(
    (branch0): BasicConv2d(
      (conv): Conv2d(896, 128, kernel_size=(1, 1), stride=(1, 1), bias=False)
      (bn): BatchNorm2d(128, eps=0.001, momentum=0.1, affine=True, track_running_stats=True)
      (relu): ReLU()
    )
    (branch1): Sequential(
      (0): BasicConv2d(
        (conv): Conv2d(896, 128, kernel_size=(1, 1), stride=(1, 1), bias=False)
        (bn): BatchNorm2d(128, eps=0.001, momentum=0.1, affine=True, track_running_stats=True)
        (relu): ReLU()
      )
      (1): BasicConv2d(
        (conv): Conv2d(128, 128, kernel_size=(1, 7), stride=(1, 1), padding=(0, 3), bias=False)
        (bn): BatchNorm2d(128, eps=0.001, momentum=0.1, affine=True, track_running_stats=True)
        (relu): ReLU()
      )
      (2): BasicConv2d(
        (conv): Conv2d(128, 128, kernel_size=(7, 1), stride=(1, 1), padding=(3, 0), bias=False)
        (bn): BatchNorm2d(128, eps=0.001, momentum=0.1, affine=True, track_running_stats=True)
        (relu): ReLU()
      )
    )
    (conv2d): Conv2d(256, 896, kernel_size=(1, 1), stride=(1, 1))
    (relu): ReLU()
  )
  (5): Block17(
    (branch0): BasicConv2d(
      (conv): Conv2d(896, 128, kernel_size=(1, 1), stride=(1, 1), bias=False)
      (bn): BatchNorm2d(128, eps=0.001, momentum=0.1, affine=True, track_running_stats=True)
      (relu): ReLU()
    )
    (branch1): Sequential(
      (0): BasicConv2d(
        (conv): Conv2d(896, 128, kernel_size=(1, 1), stride=(1, 1), bias=False)
        (bn): BatchNorm2d(128, eps=0.001, momentum=0.1, affine=True, track_running_stats=True)
        (relu): ReLU()
      )
      (1): BasicConv2d(
        (conv): Conv2d(128, 128, kernel_size=(1, 7), stride=(1, 1), padding=(0, 3), bias=False)
        (bn): BatchNorm2d(128, eps=0.001, momentum=0.1, affine=True, track_running_stats=True)
        (relu): ReLU()
      )
      (2): BasicConv2d(
        (conv): Conv2d(128, 128, kernel_size=(7, 1), stride=(1, 1), padding=(3, 0), bias=False)
        (bn): BatchNorm2d(128, eps=0.001, momentum=0.1, affine=True, track_running_stats=True)
        (relu): ReLU()
      )
    )
    (conv2d): Conv2d(256, 896, kernel_size=(1, 1), stride=(1, 1))
    (relu): ReLU()
  )
  (6): Block17(
    (branch0): BasicConv2d(
      (conv): Conv2d(896, 128, kernel_size=(1, 1), stride=(1, 1), bias=False)
      (bn): BatchNorm2d(128, eps=0.001, momentum=0.1, affine=True, track_running_stats=True)
      (relu): ReLU()
    )
    (branch1): Sequential(
      (0): BasicConv2d(
        (conv): Conv2d(896, 128, kernel_size=(1, 1), stride=(1, 1), bias=False)
        (bn): BatchNorm2d(128, eps=0.001, momentum=0.1, affine=True, track_running_stats=True)
        (relu): ReLU()
      )
      (1): BasicConv2d(
        (conv): Conv2d(128, 128, kernel_size=(1, 7), stride=(1, 1), padding=(0, 3), bias=False)
        (bn): BatchNorm2d(128, eps=0.001, momentum=0.1, affine=True, track_running_stats=True)
        (relu): ReLU()
      )
      (2): BasicConv2d(
        (conv): Conv2d(128, 128, kernel_size=(7, 1), stride=(1, 1), padding=(3, 0), bias=False)
        (bn): BatchNorm2d(128, eps=0.001, momentum=0.1, affine=True, track_running_stats=True)
        (relu): ReLU()
      )
    )
    (conv2d): Conv2d(256, 896, kernel_size=(1, 1), stride=(1, 1))
    (relu): ReLU()
  )
  (7): Block17(
    (branch0): BasicConv2d(
      (conv): Conv2d(896, 128, kernel_size=(1, 1), stride=(1, 1), bias=False)
      (bn): BatchNorm2d(128, eps=0.001, momentum=0.1, affine=True, track_running_stats=True)
      (relu): ReLU()
    )
    (branch1): Sequential(
      (0): BasicConv2d(
        (conv): Conv2d(896, 128, kernel_size=(1, 1), stride=(1, 1), bias=False)
        (bn): BatchNorm2d(128, eps=0.001, momentum=0.1, affine=True, track_running_stats=True)
        (relu): ReLU()
      )
      (1): BasicConv2d(
        (conv): Conv2d(128, 128, kernel_size=(1, 7), stride=(1, 1), padding=(0, 3), bias=False)
        (bn): BatchNorm2d(128, eps=0.001, momentum=0.1, affine=True, track_running_stats=True)
        (relu): ReLU()
      )
      (2): BasicConv2d(
        (conv): Conv2d(128, 128, kernel_size=(7, 1), stride=(1, 1), padding=(3, 0), bias=False)
        (bn): BatchNorm2d(128, eps=0.001, momentum=0.1, affine=True, track_running_stats=True)
        (relu): ReLU()
      )
    )
    (conv2d): Conv2d(256, 896, kernel_size=(1, 1), stride=(1, 1))
    (relu): ReLU()
  )
  (8): Block17(
    (branch0): BasicConv2d(
      (conv): Conv2d(896, 128, kernel_size=(1, 1), stride=(1, 1), bias=False)
      (bn): BatchNorm2d(128, eps=0.001, momentum=0.1, affine=True, track_running_stats=True)
      (relu): ReLU()
    )
    (branch1): Sequential(
      (0): BasicConv2d(
        (conv): Conv2d(896, 128, kernel_size=(1, 1), stride=(1, 1), bias=False)
        (bn): BatchNorm2d(128, eps=0.001, momentum=0.1, affine=True, track_running_stats=True)
        (relu): ReLU()
      )
      (1): BasicConv2d(
        (conv): Conv2d(128, 128, kernel_size=(1, 7), stride=(1, 1), padding=(0, 3), bias=False)
        (bn): BatchNorm2d(128, eps=0.001, momentum=0.1, affine=True, track_running_stats=True)
        (relu): ReLU()
      )
      (2): BasicConv2d(
        (conv): Conv2d(128, 128, kernel_size=(7, 1), stride=(1, 1), padding=(3, 0), bias=False)
        (bn): BatchNorm2d(128, eps=0.001, momentum=0.1, affine=True, track_running_stats=True)
        (relu): ReLU()
      )
    )
    (conv2d): Conv2d(256, 896, kernel_size=(1, 1), stride=(1, 1))
    (relu): ReLU()
  )
  (9): Block17(
    (branch0): BasicConv2d(
      (conv): Conv2d(896, 128, kernel_size=(1, 1), stride=(1, 1), bias=False)
      (bn): BatchNorm2d(128, eps=0.001, momentum=0.1, affine=True, track_running_stats=True)
      (relu): ReLU()
    )
    (branch1): Sequential(
      (0): BasicConv2d(
        (conv): Conv2d(896, 128, kernel_size=(1, 1), stride=(1, 1), bias=False)
        (bn): BatchNorm2d(128, eps=0.001, momentum=0.1, affine=True, track_running_stats=True)
        (relu): ReLU()
      )
      (1): BasicConv2d(
        (conv): Conv2d(128, 128, kernel_size=(1, 7), stride=(1, 1), padding=(0, 3), bias=False)
        (bn): BatchNorm2d(128, eps=0.001, momentum=0.1, affine=True, track_running_stats=True)
        (relu): ReLU()
      )
      (2): BasicConv2d(
        (conv): Conv2d(128, 128, kernel_size=(7, 1), stride=(1, 1), padding=(3, 0), bias=False)
        (bn): BatchNorm2d(128, eps=0.001, momentum=0.1, affine=True, track_running_stats=True)
        (relu): ReLU()
      )
    )
    (conv2d): Conv2d(256, 896, kernel_size=(1, 1), stride=(1, 1))
    (relu): ReLU()
  )
)
repeat_2.0: Block17(
  (branch0): BasicConv2d(
    (conv): Conv2d(896, 128, kernel_size=(1, 1), stride=(1, 1), bias=False)
    (bn): BatchNorm2d(128, eps=0.001, momentum=0.1, affine=True, track_running_stats=True)
    (relu): ReLU()
  )
  (branch1): Sequential(
    (0): BasicConv2d(
      (conv): Conv2d(896, 128, kernel_size=(1, 1), stride=(1, 1), bias=False)
      (bn): BatchNorm2d(128, eps=0.001, momentum=0.1, affine=True, track_running_stats=True)
      (relu): ReLU()
    )
    (1): BasicConv2d(
      (conv): Conv2d(128, 128, kernel_size=(1, 7), stride=(1, 1), padding=(0, 3), bias=False)
      (bn): BatchNorm2d(128, eps=0.001, momentum=0.1, affine=True, track_running_stats=True)
      (relu): ReLU()
    )
    (2): BasicConv2d(
      (conv): Conv2d(128, 128, kernel_size=(7, 1), stride=(1, 1), padding=(3, 0), bias=False)
      (bn): BatchNorm2d(128, eps=0.001, momentum=0.1, affine=True, track_running_stats=True)
      (relu): ReLU()
    )
  )
  (conv2d): Conv2d(256, 896, kernel_size=(1, 1), stride=(1, 1))
  (relu): ReLU()
)
repeat_2.0.branch0: BasicConv2d(
  (conv): Conv2d(896, 128, kernel_size=(1, 1), stride=(1, 1), bias=False)
  (bn): BatchNorm2d(128, eps=0.001, momentum=0.1, affine=True, track_running_stats=True)
  (relu): ReLU()
)
repeat_2.0.branch0.conv: Conv2d(896, 128, kernel_size=(1, 1), stride=(1, 1), bias=False)
repeat_2.0.branch0.bn: BatchNorm2d(128, eps=0.001, momentum=0.1, affine=True, track_running_stats=True)
repeat_2.0.branch0.relu: ReLU()
repeat_2.0.branch1: Sequential(
  (0): BasicConv2d(
    (conv): Conv2d(896, 128, kernel_size=(1, 1), stride=(1, 1), bias=False)
    (bn): BatchNorm2d(128, eps=0.001, momentum=0.1, affine=True, track_running_stats=True)
    (relu): ReLU()
  )
  (1): BasicConv2d(
    (conv): Conv2d(128, 128, kernel_size=(1, 7), stride=(1, 1), padding=(0, 3), bias=False)
    (bn): BatchNorm2d(128, eps=0.001, momentum=0.1, affine=True, track_running_stats=True)
    (relu): ReLU()
  )
  (2): BasicConv2d(
    (conv): Conv2d(128, 128, kernel_size=(7, 1), stride=(1, 1), padding=(3, 0), bias=False)
    (bn): BatchNorm2d(128, eps=0.001, momentum=0.1, affine=True, track_running_stats=True)
    (relu): ReLU()
  )
)
repeat_2.0.branch1.0: BasicConv2d(
  (conv): Conv2d(896, 128, kernel_size=(1, 1), stride=(1, 1), bias=False)
  (bn): BatchNorm2d(128, eps=0.001, momentum=0.1, affine=True, track_running_stats=True)
  (relu): ReLU()
)
repeat_2.0.branch1.0.conv: Conv2d(896, 128, kernel_size=(1, 1), stride=(1, 1), bias=False)
repeat_2.0.branch1.0.bn: BatchNorm2d(128, eps=0.001, momentum=0.1, affine=True, track_running_stats=True)
repeat_2.0.branch1.0.relu: ReLU()
repeat_2.0.branch1.1: BasicConv2d(
  (conv): Conv2d(128, 128, kernel_size=(1, 7), stride=(1, 1), padding=(0, 3), bias=False)
  (bn): BatchNorm2d(128, eps=0.001, momentum=0.1, affine=True, track_running_stats=True)
  (relu): ReLU()
)
repeat_2.0.branch1.1.conv: Conv2d(128, 128, kernel_size=(1, 7), stride=(1, 1), padding=(0, 3), bias=False)
repeat_2.0.branch1.1.bn: BatchNorm2d(128, eps=0.001, momentum=0.1, affine=True, track_running_stats=True)
repeat_2.0.branch1.1.relu: ReLU()
repeat_2.0.branch1.2: BasicConv2d(
  (conv): Conv2d(128, 128, kernel_size=(7, 1), stride=(1, 1), padding=(3, 0), bias=False)
  (bn): BatchNorm2d(128, eps=0.001, momentum=0.1, affine=True, track_running_stats=True)
  (relu): ReLU()
)
repeat_2.0.branch1.2.conv: Conv2d(128, 128, kernel_size=(7, 1), stride=(1, 1), padding=(3, 0), bias=False)
repeat_2.0.branch1.2.bn: BatchNorm2d(128, eps=0.001, momentum=0.1, affine=True, track_running_stats=True)
repeat_2.0.branch1.2.relu: ReLU()
repeat_2.0.conv2d: Conv2d(256, 896, kernel_size=(1, 1), stride=(1, 1))
repeat_2.0.relu: ReLU()
repeat_2.1: Block17(
  (branch0): BasicConv2d(
    (conv): Conv2d(896, 128, kernel_size=(1, 1), stride=(1, 1), bias=False)
    (bn): BatchNorm2d(128, eps=0.001, momentum=0.1, affine=True, track_running_stats=True)
    (relu): ReLU()
  )
  (branch1): Sequential(
    (0): BasicConv2d(
      (conv): Conv2d(896, 128, kernel_size=(1, 1), stride=(1, 1), bias=False)
      (bn): BatchNorm2d(128, eps=0.001, momentum=0.1, affine=True, track_running_stats=True)
      (relu): ReLU()
    )
    (1): BasicConv2d(
      (conv): Conv2d(128, 128, kernel_size=(1, 7), stride=(1, 1), padding=(0, 3), bias=False)
      (bn): BatchNorm2d(128, eps=0.001, momentum=0.1, affine=True, track_running_stats=True)
      (relu): ReLU()
    )
    (2): BasicConv2d(
      (conv): Conv2d(128, 128, kernel_size=(7, 1), stride=(1, 1), padding=(3, 0), bias=False)
      (bn): BatchNorm2d(128, eps=0.001, momentum=0.1, affine=True, track_running_stats=True)
      (relu): ReLU()
    )
  )
  (conv2d): Conv2d(256, 896, kernel_size=(1, 1), stride=(1, 1))
  (relu): ReLU()
)
repeat_2.1.branch0: BasicConv2d(
  (conv): Conv2d(896, 128, kernel_size=(1, 1), stride=(1, 1), bias=False)
  (bn): BatchNorm2d(128, eps=0.001, momentum=0.1, affine=True, track_running_stats=True)
  (relu): ReLU()
)
repeat_2.1.branch0.conv: Conv2d(896, 128, kernel_size=(1, 1), stride=(1, 1), bias=False)
repeat_2.1.branch0.bn: BatchNorm2d(128, eps=0.001, momentum=0.1, affine=True, track_running_stats=True)
repeat_2.1.branch0.relu: ReLU()
repeat_2.1.branch1: Sequential(
  (0): BasicConv2d(
    (conv): Conv2d(896, 128, kernel_size=(1, 1), stride=(1, 1), bias=False)
    (bn): BatchNorm2d(128, eps=0.001, momentum=0.1, affine=True, track_running_stats=True)
    (relu): ReLU()
  )
  (1): BasicConv2d(
    (conv): Conv2d(128, 128, kernel_size=(1, 7), stride=(1, 1), padding=(0, 3), bias=False)
    (bn): BatchNorm2d(128, eps=0.001, momentum=0.1, affine=True, track_running_stats=True)
    (relu): ReLU()
  )
  (2): BasicConv2d(
    (conv): Conv2d(128, 128, kernel_size=(7, 1), stride=(1, 1), padding=(3, 0), bias=False)
    (bn): BatchNorm2d(128, eps=0.001, momentum=0.1, affine=True, track_running_stats=True)
    (relu): ReLU()
  )
)
repeat_2.1.branch1.0: BasicConv2d(
  (conv): Conv2d(896, 128, kernel_size=(1, 1), stride=(1, 1), bias=False)
  (bn): BatchNorm2d(128, eps=0.001, momentum=0.1, affine=True, track_running_stats=True)
  (relu): ReLU()
)
repeat_2.1.branch1.0.conv: Conv2d(896, 128, kernel_size=(1, 1), stride=(1, 1), bias=False)
repeat_2.1.branch1.0.bn: BatchNorm2d(128, eps=0.001, momentum=0.1, affine=True, track_running_stats=True)
repeat_2.1.branch1.0.relu: ReLU()
repeat_2.1.branch1.1: BasicConv2d(
  (conv): Conv2d(128, 128, kernel_size=(1, 7), stride=(1, 1), padding=(0, 3), bias=False)
  (bn): BatchNorm2d(128, eps=0.001, momentum=0.1, affine=True, track_running_stats=True)
  (relu): ReLU()
)
repeat_2.1.branch1.1.conv: Conv2d(128, 128, kernel_size=(1, 7), stride=(1, 1), padding=(0, 3), bias=False)
repeat_2.1.branch1.1.bn: BatchNorm2d(128, eps=0.001, momentum=0.1, affine=True, track_running_stats=True)
repeat_2.1.branch1.1.relu: ReLU()
repeat_2.1.branch1.2: BasicConv2d(
  (conv): Conv2d(128, 128, kernel_size=(7, 1), stride=(1, 1), padding=(3, 0), bias=False)
  (bn): BatchNorm2d(128, eps=0.001, momentum=0.1, affine=True, track_running_stats=True)
  (relu): ReLU()
)
repeat_2.1.branch1.2.conv: Conv2d(128, 128, kernel_size=(7, 1), stride=(1, 1), padding=(3, 0), bias=False)
repeat_2.1.branch1.2.bn: BatchNorm2d(128, eps=0.001, momentum=0.1, affine=True, track_running_stats=True)
repeat_2.1.branch1.2.relu: ReLU()
repeat_2.1.conv2d: Conv2d(256, 896, kernel_size=(1, 1), stride=(1, 1))
repeat_2.1.relu: ReLU()
repeat_2.2: Block17(
  (branch0): BasicConv2d(
    (conv): Conv2d(896, 128, kernel_size=(1, 1), stride=(1, 1), bias=False)
    (bn): BatchNorm2d(128, eps=0.001, momentum=0.1, affine=True, track_running_stats=True)
    (relu): ReLU()
  )
  (branch1): Sequential(
    (0): BasicConv2d(
      (conv): Conv2d(896, 128, kernel_size=(1, 1), stride=(1, 1), bias=False)
      (bn): BatchNorm2d(128, eps=0.001, momentum=0.1, affine=True, track_running_stats=True)
      (relu): ReLU()
    )
    (1): BasicConv2d(
      (conv): Conv2d(128, 128, kernel_size=(1, 7), stride=(1, 1), padding=(0, 3), bias=False)
      (bn): BatchNorm2d(128, eps=0.001, momentum=0.1, affine=True, track_running_stats=True)
      (relu): ReLU()
    )
    (2): BasicConv2d(
      (conv): Conv2d(128, 128, kernel_size=(7, 1), stride=(1, 1), padding=(3, 0), bias=False)
      (bn): BatchNorm2d(128, eps=0.001, momentum=0.1, affine=True, track_running_stats=True)
      (relu): ReLU()
    )
  )
  (conv2d): Conv2d(256, 896, kernel_size=(1, 1), stride=(1, 1))
  (relu): ReLU()
)
repeat_2.2.branch0: BasicConv2d(
  (conv): Conv2d(896, 128, kernel_size=(1, 1), stride=(1, 1), bias=False)
  (bn): BatchNorm2d(128, eps=0.001, momentum=0.1, affine=True, track_running_stats=True)
  (relu): ReLU()
)
repeat_2.2.branch0.conv: Conv2d(896, 128, kernel_size=(1, 1), stride=(1, 1), bias=False)
repeat_2.2.branch0.bn: BatchNorm2d(128, eps=0.001, momentum=0.1, affine=True, track_running_stats=True)
repeat_2.2.branch0.relu: ReLU()
repeat_2.2.branch1: Sequential(
  (0): BasicConv2d(
    (conv): Conv2d(896, 128, kernel_size=(1, 1), stride=(1, 1), bias=False)
    (bn): BatchNorm2d(128, eps=0.001, momentum=0.1, affine=True, track_running_stats=True)
    (relu): ReLU()
  )
  (1): BasicConv2d(
    (conv): Conv2d(128, 128, kernel_size=(1, 7), stride=(1, 1), padding=(0, 3), bias=False)
    (bn): BatchNorm2d(128, eps=0.001, momentum=0.1, affine=True, track_running_stats=True)
    (relu): ReLU()
  )
  (2): BasicConv2d(
    (conv): Conv2d(128, 128, kernel_size=(7, 1), stride=(1, 1), padding=(3, 0), bias=False)
    (bn): BatchNorm2d(128, eps=0.001, momentum=0.1, affine=True, track_running_stats=True)
    (relu): ReLU()
  )
)
repeat_2.2.branch1.0: BasicConv2d(
  (conv): Conv2d(896, 128, kernel_size=(1, 1), stride=(1, 1), bias=False)
  (bn): BatchNorm2d(128, eps=0.001, momentum=0.1, affine=True, track_running_stats=True)
  (relu): ReLU()
)
repeat_2.2.branch1.0.conv: Conv2d(896, 128, kernel_size=(1, 1), stride=(1, 1), bias=False)
repeat_2.2.branch1.0.bn: BatchNorm2d(128, eps=0.001, momentum=0.1, affine=True, track_running_stats=True)
repeat_2.2.branch1.0.relu: ReLU()
repeat_2.2.branch1.1: BasicConv2d(
  (conv): Conv2d(128, 128, kernel_size=(1, 7), stride=(1, 1), padding=(0, 3), bias=False)
  (bn): BatchNorm2d(128, eps=0.001, momentum=0.1, affine=True, track_running_stats=True)
  (relu): ReLU()
)
repeat_2.2.branch1.1.conv: Conv2d(128, 128, kernel_size=(1, 7), stride=(1, 1), padding=(0, 3), bias=False)
repeat_2.2.branch1.1.bn: BatchNorm2d(128, eps=0.001, momentum=0.1, affine=True, track_running_stats=True)
repeat_2.2.branch1.1.relu: ReLU()
repeat_2.2.branch1.2: BasicConv2d(
  (conv): Conv2d(128, 128, kernel_size=(7, 1), stride=(1, 1), padding=(3, 0), bias=False)
  (bn): BatchNorm2d(128, eps=0.001, momentum=0.1, affine=True, track_running_stats=True)
  (relu): ReLU()
)
repeat_2.2.branch1.2.conv: Conv2d(128, 128, kernel_size=(7, 1), stride=(1, 1), padding=(3, 0), bias=False)
repeat_2.2.branch1.2.bn: BatchNorm2d(128, eps=0.001, momentum=0.1, affine=True, track_running_stats=True)
repeat_2.2.branch1.2.relu: ReLU()
repeat_2.2.conv2d: Conv2d(256, 896, kernel_size=(1, 1), stride=(1, 1))
repeat_2.2.relu: ReLU()
repeat_2.3: Block17(
  (branch0): BasicConv2d(
    (conv): Conv2d(896, 128, kernel_size=(1, 1), stride=(1, 1), bias=False)
    (bn): BatchNorm2d(128, eps=0.001, momentum=0.1, affine=True, track_running_stats=True)
    (relu): ReLU()
  )
  (branch1): Sequential(
    (0): BasicConv2d(
      (conv): Conv2d(896, 128, kernel_size=(1, 1), stride=(1, 1), bias=False)
      (bn): BatchNorm2d(128, eps=0.001, momentum=0.1, affine=True, track_running_stats=True)
      (relu): ReLU()
    )
    (1): BasicConv2d(
      (conv): Conv2d(128, 128, kernel_size=(1, 7), stride=(1, 1), padding=(0, 3), bias=False)
      (bn): BatchNorm2d(128, eps=0.001, momentum=0.1, affine=True, track_running_stats=True)
      (relu): ReLU()
    )
    (2): BasicConv2d(
      (conv): Conv2d(128, 128, kernel_size=(7, 1), stride=(1, 1), padding=(3, 0), bias=False)
      (bn): BatchNorm2d(128, eps=0.001, momentum=0.1, affine=True, track_running_stats=True)
      (relu): ReLU()
    )
  )
  (conv2d): Conv2d(256, 896, kernel_size=(1, 1), stride=(1, 1))
  (relu): ReLU()
)
repeat_2.3.branch0: BasicConv2d(
  (conv): Conv2d(896, 128, kernel_size=(1, 1), stride=(1, 1), bias=False)
  (bn): BatchNorm2d(128, eps=0.001, momentum=0.1, affine=True, track_running_stats=True)
  (relu): ReLU()
)
repeat_2.3.branch0.conv: Conv2d(896, 128, kernel_size=(1, 1), stride=(1, 1), bias=False)
repeat_2.3.branch0.bn: BatchNorm2d(128, eps=0.001, momentum=0.1, affine=True, track_running_stats=True)
repeat_2.3.branch0.relu: ReLU()
repeat_2.3.branch1: Sequential(
  (0): BasicConv2d(
    (conv): Conv2d(896, 128, kernel_size=(1, 1), stride=(1, 1), bias=False)
    (bn): BatchNorm2d(128, eps=0.001, momentum=0.1, affine=True, track_running_stats=True)
    (relu): ReLU()
  )
  (1): BasicConv2d(
    (conv): Conv2d(128, 128, kernel_size=(1, 7), stride=(1, 1), padding=(0, 3), bias=False)
    (bn): BatchNorm2d(128, eps=0.001, momentum=0.1, affine=True, track_running_stats=True)
    (relu): ReLU()
  )
  (2): BasicConv2d(
    (conv): Conv2d(128, 128, kernel_size=(7, 1), stride=(1, 1), padding=(3, 0), bias=False)
    (bn): BatchNorm2d(128, eps=0.001, momentum=0.1, affine=True, track_running_stats=True)
    (relu): ReLU()
  )
)
repeat_2.3.branch1.0: BasicConv2d(
  (conv): Conv2d(896, 128, kernel_size=(1, 1), stride=(1, 1), bias=False)
  (bn): BatchNorm2d(128, eps=0.001, momentum=0.1, affine=True, track_running_stats=True)
  (relu): ReLU()
)
repeat_2.3.branch1.0.conv: Conv2d(896, 128, kernel_size=(1, 1), stride=(1, 1), bias=False)
repeat_2.3.branch1.0.bn: BatchNorm2d(128, eps=0.001, momentum=0.1, affine=True, track_running_stats=True)
repeat_2.3.branch1.0.relu: ReLU()
repeat_2.3.branch1.1: BasicConv2d(
  (conv): Conv2d(128, 128, kernel_size=(1, 7), stride=(1, 1), padding=(0, 3), bias=False)
  (bn): BatchNorm2d(128, eps=0.001, momentum=0.1, affine=True, track_running_stats=True)
  (relu): ReLU()
)
repeat_2.3.branch1.1.conv: Conv2d(128, 128, kernel_size=(1, 7), stride=(1, 1), padding=(0, 3), bias=False)
repeat_2.3.branch1.1.bn: BatchNorm2d(128, eps=0.001, momentum=0.1, affine=True, track_running_stats=True)
repeat_2.3.branch1.1.relu: ReLU()
repeat_2.3.branch1.2: BasicConv2d(
  (conv): Conv2d(128, 128, kernel_size=(7, 1), stride=(1, 1), padding=(3, 0), bias=False)
  (bn): BatchNorm2d(128, eps=0.001, momentum=0.1, affine=True, track_running_stats=True)
  (relu): ReLU()
)
repeat_2.3.branch1.2.conv: Conv2d(128, 128, kernel_size=(7, 1), stride=(1, 1), padding=(3, 0), bias=False)
repeat_2.3.branch1.2.bn: BatchNorm2d(128, eps=0.001, momentum=0.1, affine=True, track_running_stats=True)
repeat_2.3.branch1.2.relu: ReLU()
repeat_2.3.conv2d: Conv2d(256, 896, kernel_size=(1, 1), stride=(1, 1))
repeat_2.3.relu: ReLU()
repeat_2.4: Block17(
  (branch0): BasicConv2d(
    (conv): Conv2d(896, 128, kernel_size=(1, 1), stride=(1, 1), bias=False)
    (bn): BatchNorm2d(128, eps=0.001, momentum=0.1, affine=True, track_running_stats=True)
    (relu): ReLU()
  )
  (branch1): Sequential(
    (0): BasicConv2d(
      (conv): Conv2d(896, 128, kernel_size=(1, 1), stride=(1, 1), bias=False)
      (bn): BatchNorm2d(128, eps=0.001, momentum=0.1, affine=True, track_running_stats=True)
      (relu): ReLU()
    )
    (1): BasicConv2d(
      (conv): Conv2d(128, 128, kernel_size=(1, 7), stride=(1, 1), padding=(0, 3), bias=False)
      (bn): BatchNorm2d(128, eps=0.001, momentum=0.1, affine=True, track_running_stats=True)
      (relu): ReLU()
    )
    (2): BasicConv2d(
      (conv): Conv2d(128, 128, kernel_size=(7, 1), stride=(1, 1), padding=(3, 0), bias=False)
      (bn): BatchNorm2d(128, eps=0.001, momentum=0.1, affine=True, track_running_stats=True)
      (relu): ReLU()
    )
  )
  (conv2d): Conv2d(256, 896, kernel_size=(1, 1), stride=(1, 1))
  (relu): ReLU()
)
repeat_2.4.branch0: BasicConv2d(
  (conv): Conv2d(896, 128, kernel_size=(1, 1), stride=(1, 1), bias=False)
  (bn): BatchNorm2d(128, eps=0.001, momentum=0.1, affine=True, track_running_stats=True)
  (relu): ReLU()
)
repeat_2.4.branch0.conv: Conv2d(896, 128, kernel_size=(1, 1), stride=(1, 1), bias=False)
repeat_2.4.branch0.bn: BatchNorm2d(128, eps=0.001, momentum=0.1, affine=True, track_running_stats=True)
repeat_2.4.branch0.relu: ReLU()
repeat_2.4.branch1: Sequential(
  (0): BasicConv2d(
    (conv): Conv2d(896, 128, kernel_size=(1, 1), stride=(1, 1), bias=False)
    (bn): BatchNorm2d(128, eps=0.001, momentum=0.1, affine=True, track_running_stats=True)
    (relu): ReLU()
  )
  (1): BasicConv2d(
    (conv): Conv2d(128, 128, kernel_size=(1, 7), stride=(1, 1), padding=(0, 3), bias=False)
    (bn): BatchNorm2d(128, eps=0.001, momentum=0.1, affine=True, track_running_stats=True)
    (relu): ReLU()
  )
  (2): BasicConv2d(
    (conv): Conv2d(128, 128, kernel_size=(7, 1), stride=(1, 1), padding=(3, 0), bias=False)
    (bn): BatchNorm2d(128, eps=0.001, momentum=0.1, affine=True, track_running_stats=True)
    (relu): ReLU()
  )
)
repeat_2.4.branch1.0: BasicConv2d(
  (conv): Conv2d(896, 128, kernel_size=(1, 1), stride=(1, 1), bias=False)
  (bn): BatchNorm2d(128, eps=0.001, momentum=0.1, affine=True, track_running_stats=True)
  (relu): ReLU()
)
repeat_2.4.branch1.0.conv: Conv2d(896, 128, kernel_size=(1, 1), stride=(1, 1), bias=False)
repeat_2.4.branch1.0.bn: BatchNorm2d(128, eps=0.001, momentum=0.1, affine=True, track_running_stats=True)
repeat_2.4.branch1.0.relu: ReLU()
repeat_2.4.branch1.1: BasicConv2d(
  (conv): Conv2d(128, 128, kernel_size=(1, 7), stride=(1, 1), padding=(0, 3), bias=False)
  (bn): BatchNorm2d(128, eps=0.001, momentum=0.1, affine=True, track_running_stats=True)
  (relu): ReLU()
)
repeat_2.4.branch1.1.conv: Conv2d(128, 128, kernel_size=(1, 7), stride=(1, 1), padding=(0, 3), bias=False)
repeat_2.4.branch1.1.bn: BatchNorm2d(128, eps=0.001, momentum=0.1, affine=True, track_running_stats=True)
repeat_2.4.branch1.1.relu: ReLU()
repeat_2.4.branch1.2: BasicConv2d(
  (conv): Conv2d(128, 128, kernel_size=(7, 1), stride=(1, 1), padding=(3, 0), bias=False)
  (bn): BatchNorm2d(128, eps=0.001, momentum=0.1, affine=True, track_running_stats=True)
  (relu): ReLU()
)
repeat_2.4.branch1.2.conv: Conv2d(128, 128, kernel_size=(7, 1), stride=(1, 1), padding=(3, 0), bias=False)
repeat_2.4.branch1.2.bn: BatchNorm2d(128, eps=0.001, momentum=0.1, affine=True, track_running_stats=True)
repeat_2.4.branch1.2.relu: ReLU()
repeat_2.4.conv2d: Conv2d(256, 896, kernel_size=(1, 1), stride=(1, 1))
repeat_2.4.relu: ReLU()
repeat_2.5: Block17(
  (branch0): BasicConv2d(
    (conv): Conv2d(896, 128, kernel_size=(1, 1), stride=(1, 1), bias=False)
    (bn): BatchNorm2d(128, eps=0.001, momentum=0.1, affine=True, track_running_stats=True)
    (relu): ReLU()
  )
  (branch1): Sequential(
    (0): BasicConv2d(
      (conv): Conv2d(896, 128, kernel_size=(1, 1), stride=(1, 1), bias=False)
      (bn): BatchNorm2d(128, eps=0.001, momentum=0.1, affine=True, track_running_stats=True)
      (relu): ReLU()
    )
    (1): BasicConv2d(
      (conv): Conv2d(128, 128, kernel_size=(1, 7), stride=(1, 1), padding=(0, 3), bias=False)
      (bn): BatchNorm2d(128, eps=0.001, momentum=0.1, affine=True, track_running_stats=True)
      (relu): ReLU()
    )
    (2): BasicConv2d(
      (conv): Conv2d(128, 128, kernel_size=(7, 1), stride=(1, 1), padding=(3, 0), bias=False)
      (bn): BatchNorm2d(128, eps=0.001, momentum=0.1, affine=True, track_running_stats=True)
      (relu): ReLU()
    )
  )
  (conv2d): Conv2d(256, 896, kernel_size=(1, 1), stride=(1, 1))
  (relu): ReLU()
)
repeat_2.5.branch0: BasicConv2d(
  (conv): Conv2d(896, 128, kernel_size=(1, 1), stride=(1, 1), bias=False)
  (bn): BatchNorm2d(128, eps=0.001, momentum=0.1, affine=True, track_running_stats=True)
  (relu): ReLU()
)
repeat_2.5.branch0.conv: Conv2d(896, 128, kernel_size=(1, 1), stride=(1, 1), bias=False)
repeat_2.5.branch0.bn: BatchNorm2d(128, eps=0.001, momentum=0.1, affine=True, track_running_stats=True)
repeat_2.5.branch0.relu: ReLU()
repeat_2.5.branch1: Sequential(
  (0): BasicConv2d(
    (conv): Conv2d(896, 128, kernel_size=(1, 1), stride=(1, 1), bias=False)
    (bn): BatchNorm2d(128, eps=0.001, momentum=0.1, affine=True, track_running_stats=True)
    (relu): ReLU()
  )
  (1): BasicConv2d(
    (conv): Conv2d(128, 128, kernel_size=(1, 7), stride=(1, 1), padding=(0, 3), bias=False)
    (bn): BatchNorm2d(128, eps=0.001, momentum=0.1, affine=True, track_running_stats=True)
    (relu): ReLU()
  )
  (2): BasicConv2d(
    (conv): Conv2d(128, 128, kernel_size=(7, 1), stride=(1, 1), padding=(3, 0), bias=False)
    (bn): BatchNorm2d(128, eps=0.001, momentum=0.1, affine=True, track_running_stats=True)
    (relu): ReLU()
  )
)
repeat_2.5.branch1.0: BasicConv2d(
  (conv): Conv2d(896, 128, kernel_size=(1, 1), stride=(1, 1), bias=False)
  (bn): BatchNorm2d(128, eps=0.001, momentum=0.1, affine=True, track_running_stats=True)
  (relu): ReLU()
)
repeat_2.5.branch1.0.conv: Conv2d(896, 128, kernel_size=(1, 1), stride=(1, 1), bias=False)
repeat_2.5.branch1.0.bn: BatchNorm2d(128, eps=0.001, momentum=0.1, affine=True, track_running_stats=True)
repeat_2.5.branch1.0.relu: ReLU()
repeat_2.5.branch1.1: BasicConv2d(
  (conv): Conv2d(128, 128, kernel_size=(1, 7), stride=(1, 1), padding=(0, 3), bias=False)
  (bn): BatchNorm2d(128, eps=0.001, momentum=0.1, affine=True, track_running_stats=True)
  (relu): ReLU()
)
repeat_2.5.branch1.1.conv: Conv2d(128, 128, kernel_size=(1, 7), stride=(1, 1), padding=(0, 3), bias=False)
repeat_2.5.branch1.1.bn: BatchNorm2d(128, eps=0.001, momentum=0.1, affine=True, track_running_stats=True)
repeat_2.5.branch1.1.relu: ReLU()
repeat_2.5.branch1.2: BasicConv2d(
  (conv): Conv2d(128, 128, kernel_size=(7, 1), stride=(1, 1), padding=(3, 0), bias=False)
  (bn): BatchNorm2d(128, eps=0.001, momentum=0.1, affine=True, track_running_stats=True)
  (relu): ReLU()
)
repeat_2.5.branch1.2.conv: Conv2d(128, 128, kernel_size=(7, 1), stride=(1, 1), padding=(3, 0), bias=False)
repeat_2.5.branch1.2.bn: BatchNorm2d(128, eps=0.001, momentum=0.1, affine=True, track_running_stats=True)
repeat_2.5.branch1.2.relu: ReLU()
repeat_2.5.conv2d: Conv2d(256, 896, kernel_size=(1, 1), stride=(1, 1))
repeat_2.5.relu: ReLU()
repeat_2.6: Block17(
  (branch0): BasicConv2d(
    (conv): Conv2d(896, 128, kernel_size=(1, 1), stride=(1, 1), bias=False)
    (bn): BatchNorm2d(128, eps=0.001, momentum=0.1, affine=True, track_running_stats=True)
    (relu): ReLU()
  )
  (branch1): Sequential(
    (0): BasicConv2d(
      (conv): Conv2d(896, 128, kernel_size=(1, 1), stride=(1, 1), bias=False)
      (bn): BatchNorm2d(128, eps=0.001, momentum=0.1, affine=True, track_running_stats=True)
      (relu): ReLU()
    )
    (1): BasicConv2d(
      (conv): Conv2d(128, 128, kernel_size=(1, 7), stride=(1, 1), padding=(0, 3), bias=False)
      (bn): BatchNorm2d(128, eps=0.001, momentum=0.1, affine=True, track_running_stats=True)
      (relu): ReLU()
    )
    (2): BasicConv2d(
      (conv): Conv2d(128, 128, kernel_size=(7, 1), stride=(1, 1), padding=(3, 0), bias=False)
      (bn): BatchNorm2d(128, eps=0.001, momentum=0.1, affine=True, track_running_stats=True)
      (relu): ReLU()
    )
  )
  (conv2d): Conv2d(256, 896, kernel_size=(1, 1), stride=(1, 1))
  (relu): ReLU()
)
repeat_2.6.branch0: BasicConv2d(
  (conv): Conv2d(896, 128, kernel_size=(1, 1), stride=(1, 1), bias=False)
  (bn): BatchNorm2d(128, eps=0.001, momentum=0.1, affine=True, track_running_stats=True)
  (relu): ReLU()
)
repeat_2.6.branch0.conv: Conv2d(896, 128, kernel_size=(1, 1), stride=(1, 1), bias=False)
repeat_2.6.branch0.bn: BatchNorm2d(128, eps=0.001, momentum=0.1, affine=True, track_running_stats=True)
repeat_2.6.branch0.relu: ReLU()
repeat_2.6.branch1: Sequential(
  (0): BasicConv2d(
    (conv): Conv2d(896, 128, kernel_size=(1, 1), stride=(1, 1), bias=False)
    (bn): BatchNorm2d(128, eps=0.001, momentum=0.1, affine=True, track_running_stats=True)
    (relu): ReLU()
  )
  (1): BasicConv2d(
    (conv): Conv2d(128, 128, kernel_size=(1, 7), stride=(1, 1), padding=(0, 3), bias=False)
    (bn): BatchNorm2d(128, eps=0.001, momentum=0.1, affine=True, track_running_stats=True)
    (relu): ReLU()
  )
  (2): BasicConv2d(
    (conv): Conv2d(128, 128, kernel_size=(7, 1), stride=(1, 1), padding=(3, 0), bias=False)
    (bn): BatchNorm2d(128, eps=0.001, momentum=0.1, affine=True, track_running_stats=True)
    (relu): ReLU()
  )
)
repeat_2.6.branch1.0: BasicConv2d(
  (conv): Conv2d(896, 128, kernel_size=(1, 1), stride=(1, 1), bias=False)
  (bn): BatchNorm2d(128, eps=0.001, momentum=0.1, affine=True, track_running_stats=True)
  (relu): ReLU()
)
repeat_2.6.branch1.0.conv: Conv2d(896, 128, kernel_size=(1, 1), stride=(1, 1), bias=False)
repeat_2.6.branch1.0.bn: BatchNorm2d(128, eps=0.001, momentum=0.1, affine=True, track_running_stats=True)
repeat_2.6.branch1.0.relu: ReLU()
repeat_2.6.branch1.1: BasicConv2d(
  (conv): Conv2d(128, 128, kernel_size=(1, 7), stride=(1, 1), padding=(0, 3), bias=False)
  (bn): BatchNorm2d(128, eps=0.001, momentum=0.1, affine=True, track_running_stats=True)
  (relu): ReLU()
)
repeat_2.6.branch1.1.conv: Conv2d(128, 128, kernel_size=(1, 7), stride=(1, 1), padding=(0, 3), bias=False)
repeat_2.6.branch1.1.bn: BatchNorm2d(128, eps=0.001, momentum=0.1, affine=True, track_running_stats=True)
repeat_2.6.branch1.1.relu: ReLU()
repeat_2.6.branch1.2: BasicConv2d(
  (conv): Conv2d(128, 128, kernel_size=(7, 1), stride=(1, 1), padding=(3, 0), bias=False)
  (bn): BatchNorm2d(128, eps=0.001, momentum=0.1, affine=True, track_running_stats=True)
  (relu): ReLU()
)
repeat_2.6.branch1.2.conv: Conv2d(128, 128, kernel_size=(7, 1), stride=(1, 1), padding=(3, 0), bias=False)
repeat_2.6.branch1.2.bn: BatchNorm2d(128, eps=0.001, momentum=0.1, affine=True, track_running_stats=True)
repeat_2.6.branch1.2.relu: ReLU()
repeat_2.6.conv2d: Conv2d(256, 896, kernel_size=(1, 1), stride=(1, 1))
repeat_2.6.relu: ReLU()
repeat_2.7: Block17(
  (branch0): BasicConv2d(
    (conv): Conv2d(896, 128, kernel_size=(1, 1), stride=(1, 1), bias=False)
    (bn): BatchNorm2d(128, eps=0.001, momentum=0.1, affine=True, track_running_stats=True)
    (relu): ReLU()
  )
  (branch1): Sequential(
    (0): BasicConv2d(
      (conv): Conv2d(896, 128, kernel_size=(1, 1), stride=(1, 1), bias=False)
      (bn): BatchNorm2d(128, eps=0.001, momentum=0.1, affine=True, track_running_stats=True)
      (relu): ReLU()
    )
    (1): BasicConv2d(
      (conv): Conv2d(128, 128, kernel_size=(1, 7), stride=(1, 1), padding=(0, 3), bias=False)
      (bn): BatchNorm2d(128, eps=0.001, momentum=0.1, affine=True, track_running_stats=True)
      (relu): ReLU()
    )
    (2): BasicConv2d(
      (conv): Conv2d(128, 128, kernel_size=(7, 1), stride=(1, 1), padding=(3, 0), bias=False)
      (bn): BatchNorm2d(128, eps=0.001, momentum=0.1, affine=True, track_running_stats=True)
      (relu): ReLU()
    )
  )
  (conv2d): Conv2d(256, 896, kernel_size=(1, 1), stride=(1, 1))
  (relu): ReLU()
)
repeat_2.7.branch0: BasicConv2d(
  (conv): Conv2d(896, 128, kernel_size=(1, 1), stride=(1, 1), bias=False)
  (bn): BatchNorm2d(128, eps=0.001, momentum=0.1, affine=True, track_running_stats=True)
  (relu): ReLU()
)
repeat_2.7.branch0.conv: Conv2d(896, 128, kernel_size=(1, 1), stride=(1, 1), bias=False)
repeat_2.7.branch0.bn: BatchNorm2d(128, eps=0.001, momentum=0.1, affine=True, track_running_stats=True)
repeat_2.7.branch0.relu: ReLU()
repeat_2.7.branch1: Sequential(
  (0): BasicConv2d(
    (conv): Conv2d(896, 128, kernel_size=(1, 1), stride=(1, 1), bias=False)
    (bn): BatchNorm2d(128, eps=0.001, momentum=0.1, affine=True, track_running_stats=True)
    (relu): ReLU()
  )
  (1): BasicConv2d(
    (conv): Conv2d(128, 128, kernel_size=(1, 7), stride=(1, 1), padding=(0, 3), bias=False)
    (bn): BatchNorm2d(128, eps=0.001, momentum=0.1, affine=True, track_running_stats=True)
    (relu): ReLU()
  )
  (2): BasicConv2d(
    (conv): Conv2d(128, 128, kernel_size=(7, 1), stride=(1, 1), padding=(3, 0), bias=False)
    (bn): BatchNorm2d(128, eps=0.001, momentum=0.1, affine=True, track_running_stats=True)
    (relu): ReLU()
  )
)
repeat_2.7.branch1.0: BasicConv2d(
  (conv): Conv2d(896, 128, kernel_size=(1, 1), stride=(1, 1), bias=False)
  (bn): BatchNorm2d(128, eps=0.001, momentum=0.1, affine=True, track_running_stats=True)
  (relu): ReLU()
)
repeat_2.7.branch1.0.conv: Conv2d(896, 128, kernel_size=(1, 1), stride=(1, 1), bias=False)
repeat_2.7.branch1.0.bn: BatchNorm2d(128, eps=0.001, momentum=0.1, affine=True, track_running_stats=True)
repeat_2.7.branch1.0.relu: ReLU()
repeat_2.7.branch1.1: BasicConv2d(
  (conv): Conv2d(128, 128, kernel_size=(1, 7), stride=(1, 1), padding=(0, 3), bias=False)
  (bn): BatchNorm2d(128, eps=0.001, momentum=0.1, affine=True, track_running_stats=True)
  (relu): ReLU()
)
repeat_2.7.branch1.1.conv: Conv2d(128, 128, kernel_size=(1, 7), stride=(1, 1), padding=(0, 3), bias=False)
repeat_2.7.branch1.1.bn: BatchNorm2d(128, eps=0.001, momentum=0.1, affine=True, track_running_stats=True)
repeat_2.7.branch1.1.relu: ReLU()
repeat_2.7.branch1.2: BasicConv2d(
  (conv): Conv2d(128, 128, kernel_size=(7, 1), stride=(1, 1), padding=(3, 0), bias=False)
  (bn): BatchNorm2d(128, eps=0.001, momentum=0.1, affine=True, track_running_stats=True)
  (relu): ReLU()
)
repeat_2.7.branch1.2.conv: Conv2d(128, 128, kernel_size=(7, 1), stride=(1, 1), padding=(3, 0), bias=False)
repeat_2.7.branch1.2.bn: BatchNorm2d(128, eps=0.001, momentum=0.1, affine=True, track_running_stats=True)
repeat_2.7.branch1.2.relu: ReLU()
repeat_2.7.conv2d: Conv2d(256, 896, kernel_size=(1, 1), stride=(1, 1))
repeat_2.7.relu: ReLU()
repeat_2.8: Block17(
  (branch0): BasicConv2d(
    (conv): Conv2d(896, 128, kernel_size=(1, 1), stride=(1, 1), bias=False)
    (bn): BatchNorm2d(128, eps=0.001, momentum=0.1, affine=True, track_running_stats=True)
    (relu): ReLU()
  )
  (branch1): Sequential(
    (0): BasicConv2d(
      (conv): Conv2d(896, 128, kernel_size=(1, 1), stride=(1, 1), bias=False)
      (bn): BatchNorm2d(128, eps=0.001, momentum=0.1, affine=True, track_running_stats=True)
      (relu): ReLU()
    )
    (1): BasicConv2d(
      (conv): Conv2d(128, 128, kernel_size=(1, 7), stride=(1, 1), padding=(0, 3), bias=False)
      (bn): BatchNorm2d(128, eps=0.001, momentum=0.1, affine=True, track_running_stats=True)
      (relu): ReLU()
    )
    (2): BasicConv2d(
      (conv): Conv2d(128, 128, kernel_size=(7, 1), stride=(1, 1), padding=(3, 0), bias=False)
      (bn): BatchNorm2d(128, eps=0.001, momentum=0.1, affine=True, track_running_stats=True)
      (relu): ReLU()
    )
  )
  (conv2d): Conv2d(256, 896, kernel_size=(1, 1), stride=(1, 1))
  (relu): ReLU()
)
repeat_2.8.branch0: BasicConv2d(
  (conv): Conv2d(896, 128, kernel_size=(1, 1), stride=(1, 1), bias=False)
  (bn): BatchNorm2d(128, eps=0.001, momentum=0.1, affine=True, track_running_stats=True)
  (relu): ReLU()
)
repeat_2.8.branch0.conv: Conv2d(896, 128, kernel_size=(1, 1), stride=(1, 1), bias=False)
repeat_2.8.branch0.bn: BatchNorm2d(128, eps=0.001, momentum=0.1, affine=True, track_running_stats=True)
repeat_2.8.branch0.relu: ReLU()
repeat_2.8.branch1: Sequential(
  (0): BasicConv2d(
    (conv): Conv2d(896, 128, kernel_size=(1, 1), stride=(1, 1), bias=False)
    (bn): BatchNorm2d(128, eps=0.001, momentum=0.1, affine=True, track_running_stats=True)
    (relu): ReLU()
  )
  (1): BasicConv2d(
    (conv): Conv2d(128, 128, kernel_size=(1, 7), stride=(1, 1), padding=(0, 3), bias=False)
    (bn): BatchNorm2d(128, eps=0.001, momentum=0.1, affine=True, track_running_stats=True)
    (relu): ReLU()
  )
  (2): BasicConv2d(
    (conv): Conv2d(128, 128, kernel_size=(7, 1), stride=(1, 1), padding=(3, 0), bias=False)
    (bn): BatchNorm2d(128, eps=0.001, momentum=0.1, affine=True, track_running_stats=True)
    (relu): ReLU()
  )
)
repeat_2.8.branch1.0: BasicConv2d(
  (conv): Conv2d(896, 128, kernel_size=(1, 1), stride=(1, 1), bias=False)
  (bn): BatchNorm2d(128, eps=0.001, momentum=0.1, affine=True, track_running_stats=True)
  (relu): ReLU()
)
repeat_2.8.branch1.0.conv: Conv2d(896, 128, kernel_size=(1, 1), stride=(1, 1), bias=False)
repeat_2.8.branch1.0.bn: BatchNorm2d(128, eps=0.001, momentum=0.1, affine=True, track_running_stats=True)
repeat_2.8.branch1.0.relu: ReLU()
repeat_2.8.branch1.1: BasicConv2d(
  (conv): Conv2d(128, 128, kernel_size=(1, 7), stride=(1, 1), padding=(0, 3), bias=False)
  (bn): BatchNorm2d(128, eps=0.001, momentum=0.1, affine=True, track_running_stats=True)
  (relu): ReLU()
)
repeat_2.8.branch1.1.conv: Conv2d(128, 128, kernel_size=(1, 7), stride=(1, 1), padding=(0, 3), bias=False)
repeat_2.8.branch1.1.bn: BatchNorm2d(128, eps=0.001, momentum=0.1, affine=True, track_running_stats=True)
repeat_2.8.branch1.1.relu: ReLU()
repeat_2.8.branch1.2: BasicConv2d(
  (conv): Conv2d(128, 128, kernel_size=(7, 1), stride=(1, 1), padding=(3, 0), bias=False)
  (bn): BatchNorm2d(128, eps=0.001, momentum=0.1, affine=True, track_running_stats=True)
  (relu): ReLU()
)
repeat_2.8.branch1.2.conv: Conv2d(128, 128, kernel_size=(7, 1), stride=(1, 1), padding=(3, 0), bias=False)
repeat_2.8.branch1.2.bn: BatchNorm2d(128, eps=0.001, momentum=0.1, affine=True, track_running_stats=True)
repeat_2.8.branch1.2.relu: ReLU()
repeat_2.8.conv2d: Conv2d(256, 896, kernel_size=(1, 1), stride=(1, 1))
repeat_2.8.relu: ReLU()
repeat_2.9: Block17(
  (branch0): BasicConv2d(
    (conv): Conv2d(896, 128, kernel_size=(1, 1), stride=(1, 1), bias=False)
    (bn): BatchNorm2d(128, eps=0.001, momentum=0.1, affine=True, track_running_stats=True)
    (relu): ReLU()
  )
  (branch1): Sequential(
    (0): BasicConv2d(
      (conv): Conv2d(896, 128, kernel_size=(1, 1), stride=(1, 1), bias=False)
      (bn): BatchNorm2d(128, eps=0.001, momentum=0.1, affine=True, track_running_stats=True)
      (relu): ReLU()
    )
    (1): BasicConv2d(
      (conv): Conv2d(128, 128, kernel_size=(1, 7), stride=(1, 1), padding=(0, 3), bias=False)
      (bn): BatchNorm2d(128, eps=0.001, momentum=0.1, affine=True, track_running_stats=True)
      (relu): ReLU()
    )
    (2): BasicConv2d(
      (conv): Conv2d(128, 128, kernel_size=(7, 1), stride=(1, 1), padding=(3, 0), bias=False)
      (bn): BatchNorm2d(128, eps=0.001, momentum=0.1, affine=True, track_running_stats=True)
      (relu): ReLU()
    )
  )
  (conv2d): Conv2d(256, 896, kernel_size=(1, 1), stride=(1, 1))
  (relu): ReLU()
)
repeat_2.9.branch0: BasicConv2d(
  (conv): Conv2d(896, 128, kernel_size=(1, 1), stride=(1, 1), bias=False)
  (bn): BatchNorm2d(128, eps=0.001, momentum=0.1, affine=True, track_running_stats=True)
  (relu): ReLU()
)
repeat_2.9.branch0.conv: Conv2d(896, 128, kernel_size=(1, 1), stride=(1, 1), bias=False)
repeat_2.9.branch0.bn: BatchNorm2d(128, eps=0.001, momentum=0.1, affine=True, track_running_stats=True)
repeat_2.9.branch0.relu: ReLU()
repeat_2.9.branch1: Sequential(
  (0): BasicConv2d(
    (conv): Conv2d(896, 128, kernel_size=(1, 1), stride=(1, 1), bias=False)
    (bn): BatchNorm2d(128, eps=0.001, momentum=0.1, affine=True, track_running_stats=True)
    (relu): ReLU()
  )
  (1): BasicConv2d(
    (conv): Conv2d(128, 128, kernel_size=(1, 7), stride=(1, 1), padding=(0, 3), bias=False)
    (bn): BatchNorm2d(128, eps=0.001, momentum=0.1, affine=True, track_running_stats=True)
    (relu): ReLU()
  )
  (2): BasicConv2d(
    (conv): Conv2d(128, 128, kernel_size=(7, 1), stride=(1, 1), padding=(3, 0), bias=False)
    (bn): BatchNorm2d(128, eps=0.001, momentum=0.1, affine=True, track_running_stats=True)
    (relu): ReLU()
  )
)
repeat_2.9.branch1.0: BasicConv2d(
  (conv): Conv2d(896, 128, kernel_size=(1, 1), stride=(1, 1), bias=False)
  (bn): BatchNorm2d(128, eps=0.001, momentum=0.1, affine=True, track_running_stats=True)
  (relu): ReLU()
)
repeat_2.9.branch1.0.conv: Conv2d(896, 128, kernel_size=(1, 1), stride=(1, 1), bias=False)
repeat_2.9.branch1.0.bn: BatchNorm2d(128, eps=0.001, momentum=0.1, affine=True, track_running_stats=True)
repeat_2.9.branch1.0.relu: ReLU()
repeat_2.9.branch1.1: BasicConv2d(
  (conv): Conv2d(128, 128, kernel_size=(1, 7), stride=(1, 1), padding=(0, 3), bias=False)
  (bn): BatchNorm2d(128, eps=0.001, momentum=0.1, affine=True, track_running_stats=True)
  (relu): ReLU()
)
repeat_2.9.branch1.1.conv: Conv2d(128, 128, kernel_size=(1, 7), stride=(1, 1), padding=(0, 3), bias=False)
repeat_2.9.branch1.1.bn: BatchNorm2d(128, eps=0.001, momentum=0.1, affine=True, track_running_stats=True)
repeat_2.9.branch1.1.relu: ReLU()
repeat_2.9.branch1.2: BasicConv2d(
  (conv): Conv2d(128, 128, kernel_size=(7, 1), stride=(1, 1), padding=(3, 0), bias=False)
  (bn): BatchNorm2d(128, eps=0.001, momentum=0.1, affine=True, track_running_stats=True)
  (relu): ReLU()
)
repeat_2.9.branch1.2.conv: Conv2d(128, 128, kernel_size=(7, 1), stride=(1, 1), padding=(3, 0), bias=False)
repeat_2.9.branch1.2.bn: BatchNorm2d(128, eps=0.001, momentum=0.1, affine=True, track_running_stats=True)
repeat_2.9.branch1.2.relu: ReLU()
repeat_2.9.conv2d: Conv2d(256, 896, kernel_size=(1, 1), stride=(1, 1))
repeat_2.9.relu: ReLU()
mixed_7a: Mixed_7a(
  (branch0): Sequential(
    (0): BasicConv2d(
      (conv): Conv2d(896, 256, kernel_size=(1, 1), stride=(1, 1), bias=False)
      (bn): BatchNorm2d(256, eps=0.001, momentum=0.1, affine=True, track_running_stats=True)
      (relu): ReLU()
    )
    (1): BasicConv2d(
      (conv): Conv2d(256, 384, kernel_size=(3, 3), stride=(2, 2), bias=False)
      (bn): BatchNorm2d(384, eps=0.001, momentum=0.1, affine=True, track_running_stats=True)
      (relu): ReLU()
    )
  )
  (branch1): Sequential(
    (0): BasicConv2d(
      (conv): Conv2d(896, 256, kernel_size=(1, 1), stride=(1, 1), bias=False)
      (bn): BatchNorm2d(256, eps=0.001, momentum=0.1, affine=True, track_running_stats=True)
      (relu): ReLU()
    )
    (1): BasicConv2d(
      (conv): Conv2d(256, 256, kernel_size=(3, 3), stride=(2, 2), bias=False)
      (bn): BatchNorm2d(256, eps=0.001, momentum=0.1, affine=True, track_running_stats=True)
      (relu): ReLU()
    )
  )
  (branch2): Sequential(
    (0): BasicConv2d(
      (conv): Conv2d(896, 256, kernel_size=(1, 1), stride=(1, 1), bias=False)
      (bn): BatchNorm2d(256, eps=0.001, momentum=0.1, affine=True, track_running_stats=True)
      (relu): ReLU()
    )
    (1): BasicConv2d(
      (conv): Conv2d(256, 256, kernel_size=(3, 3), stride=(1, 1), padding=(1, 1), bias=False)
      (bn): BatchNorm2d(256, eps=0.001, momentum=0.1, affine=True, track_running_stats=True)
      (relu): ReLU()
    )
    (2): BasicConv2d(
      (conv): Conv2d(256, 256, kernel_size=(3, 3), stride=(2, 2), bias=False)
      (bn): BatchNorm2d(256, eps=0.001, momentum=0.1, affine=True, track_running_stats=True)
      (relu): ReLU()
    )
  )
  (branch3): MaxPool2d(kernel_size=3, stride=2, padding=0, dilation=1, ceil_mode=False)
)
mixed_7a.branch0: Sequential(
  (0): BasicConv2d(
    (conv): Conv2d(896, 256, kernel_size=(1, 1), stride=(1, 1), bias=False)
    (bn): BatchNorm2d(256, eps=0.001, momentum=0.1, affine=True, track_running_stats=True)
    (relu): ReLU()
  )
  (1): BasicConv2d(
    (conv): Conv2d(256, 384, kernel_size=(3, 3), stride=(2, 2), bias=False)
    (bn): BatchNorm2d(384, eps=0.001, momentum=0.1, affine=True, track_running_stats=True)
    (relu): ReLU()
  )
)
mixed_7a.branch0.0: BasicConv2d(
  (conv): Conv2d(896, 256, kernel_size=(1, 1), stride=(1, 1), bias=False)
  (bn): BatchNorm2d(256, eps=0.001, momentum=0.1, affine=True, track_running_stats=True)
  (relu): ReLU()
)
mixed_7a.branch0.0.conv: Conv2d(896, 256, kernel_size=(1, 1), stride=(1, 1), bias=False)
mixed_7a.branch0.0.bn: BatchNorm2d(256, eps=0.001, momentum=0.1, affine=True, track_running_stats=True)
mixed_7a.branch0.0.relu: ReLU()
mixed_7a.branch0.1: BasicConv2d(
  (conv): Conv2d(256, 384, kernel_size=(3, 3), stride=(2, 2), bias=False)
  (bn): BatchNorm2d(384, eps=0.001, momentum=0.1, affine=True, track_running_stats=True)
  (relu): ReLU()
)
mixed_7a.branch0.1.conv: Conv2d(256, 384, kernel_size=(3, 3), stride=(2, 2), bias=False)
mixed_7a.branch0.1.bn: BatchNorm2d(384, eps=0.001, momentum=0.1, affine=True, track_running_stats=True)
mixed_7a.branch0.1.relu: ReLU()
mixed_7a.branch1: Sequential(
  (0): BasicConv2d(
    (conv): Conv2d(896, 256, kernel_size=(1, 1), stride=(1, 1), bias=False)
    (bn): BatchNorm2d(256, eps=0.001, momentum=0.1, affine=True, track_running_stats=True)
    (relu): ReLU()
  )
  (1): BasicConv2d(
    (conv): Conv2d(256, 256, kernel_size=(3, 3), stride=(2, 2), bias=False)
    (bn): BatchNorm2d(256, eps=0.001, momentum=0.1, affine=True, track_running_stats=True)
    (relu): ReLU()
  )
)
mixed_7a.branch1.0: BasicConv2d(
  (conv): Conv2d(896, 256, kernel_size=(1, 1), stride=(1, 1), bias=False)
  (bn): BatchNorm2d(256, eps=0.001, momentum=0.1, affine=True, track_running_stats=True)
  (relu): ReLU()
)
mixed_7a.branch1.0.conv: Conv2d(896, 256, kernel_size=(1, 1), stride=(1, 1), bias=False)
mixed_7a.branch1.0.bn: BatchNorm2d(256, eps=0.001, momentum=0.1, affine=True, track_running_stats=True)
mixed_7a.branch1.0.relu: ReLU()
mixed_7a.branch1.1: BasicConv2d(
  (conv): Conv2d(256, 256, kernel_size=(3, 3), stride=(2, 2), bias=False)
  (bn): BatchNorm2d(256, eps=0.001, momentum=0.1, affine=True, track_running_stats=True)
  (relu): ReLU()
)
mixed_7a.branch1.1.conv: Conv2d(256, 256, kernel_size=(3, 3), stride=(2, 2), bias=False)
mixed_7a.branch1.1.bn: BatchNorm2d(256, eps=0.001, momentum=0.1, affine=True, track_running_stats=True)
mixed_7a.branch1.1.relu: ReLU()
mixed_7a.branch2: Sequential(
  (0): BasicConv2d(
    (conv): Conv2d(896, 256, kernel_size=(1, 1), stride=(1, 1), bias=False)
    (bn): BatchNorm2d(256, eps=0.001, momentum=0.1, affine=True, track_running_stats=True)
    (relu): ReLU()
  )
  (1): BasicConv2d(
    (conv): Conv2d(256, 256, kernel_size=(3, 3), stride=(1, 1), padding=(1, 1), bias=False)
    (bn): BatchNorm2d(256, eps=0.001, momentum=0.1, affine=True, track_running_stats=True)
    (relu): ReLU()
  )
  (2): BasicConv2d(
    (conv): Conv2d(256, 256, kernel_size=(3, 3), stride=(2, 2), bias=False)
    (bn): BatchNorm2d(256, eps=0.001, momentum=0.1, affine=True, track_running_stats=True)
    (relu): ReLU()
  )
)
mixed_7a.branch2.0: BasicConv2d(
  (conv): Conv2d(896, 256, kernel_size=(1, 1), stride=(1, 1), bias=False)
  (bn): BatchNorm2d(256, eps=0.001, momentum=0.1, affine=True, track_running_stats=True)
  (relu): ReLU()
)
mixed_7a.branch2.0.conv: Conv2d(896, 256, kernel_size=(1, 1), stride=(1, 1), bias=False)
mixed_7a.branch2.0.bn: BatchNorm2d(256, eps=0.001, momentum=0.1, affine=True, track_running_stats=True)
mixed_7a.branch2.0.relu: ReLU()
mixed_7a.branch2.1: BasicConv2d(
  (conv): Conv2d(256, 256, kernel_size=(3, 3), stride=(1, 1), padding=(1, 1), bias=False)
  (bn): BatchNorm2d(256, eps=0.001, momentum=0.1, affine=True, track_running_stats=True)
  (relu): ReLU()
)
mixed_7a.branch2.1.conv: Conv2d(256, 256, kernel_size=(3, 3), stride=(1, 1), padding=(1, 1), bias=False)
mixed_7a.branch2.1.bn: BatchNorm2d(256, eps=0.001, momentum=0.1, affine=True, track_running_stats=True)
mixed_7a.branch2.1.relu: ReLU()
mixed_7a.branch2.2: BasicConv2d(
  (conv): Conv2d(256, 256, kernel_size=(3, 3), stride=(2, 2), bias=False)
  (bn): BatchNorm2d(256, eps=0.001, momentum=0.1, affine=True, track_running_stats=True)
  (relu): ReLU()
)
mixed_7a.branch2.2.conv: Conv2d(256, 256, kernel_size=(3, 3), stride=(2, 2), bias=False)
mixed_7a.branch2.2.bn: BatchNorm2d(256, eps=0.001, momentum=0.1, affine=True, track_running_stats=True)
mixed_7a.branch2.2.relu: ReLU()
mixed_7a.branch3: MaxPool2d(kernel_size=3, stride=2, padding=0, dilation=1, ceil_mode=False)
repeat_3: Sequential(
  (0): Block8(
    (branch0): BasicConv2d(
      (conv): Conv2d(1792, 192, kernel_size=(1, 1), stride=(1, 1), bias=False)
      (bn): BatchNorm2d(192, eps=0.001, momentum=0.1, affine=True, track_running_stats=True)
      (relu): ReLU()
    )
    (branch1): Sequential(
      (0): BasicConv2d(
        (conv): Conv2d(1792, 192, kernel_size=(1, 1), stride=(1, 1), bias=False)
        (bn): BatchNorm2d(192, eps=0.001, momentum=0.1, affine=True, track_running_stats=True)
        (relu): ReLU()
      )
      (1): BasicConv2d(
        (conv): Conv2d(192, 192, kernel_size=(1, 3), stride=(1, 1), padding=(0, 1), bias=False)
        (bn): BatchNorm2d(192, eps=0.001, momentum=0.1, affine=True, track_running_stats=True)
        (relu): ReLU()
      )
      (2): BasicConv2d(
        (conv): Conv2d(192, 192, kernel_size=(3, 1), stride=(1, 1), padding=(1, 0), bias=False)
        (bn): BatchNorm2d(192, eps=0.001, momentum=0.1, affine=True, track_running_stats=True)
        (relu): ReLU()
      )
    )
    (conv2d): Conv2d(384, 1792, kernel_size=(1, 1), stride=(1, 1))
    (relu): ReLU()
  )
  (1): Block8(
    (branch0): BasicConv2d(
      (conv): Conv2d(1792, 192, kernel_size=(1, 1), stride=(1, 1), bias=False)
      (bn): BatchNorm2d(192, eps=0.001, momentum=0.1, affine=True, track_running_stats=True)
      (relu): ReLU()
    )
    (branch1): Sequential(
      (0): BasicConv2d(
        (conv): Conv2d(1792, 192, kernel_size=(1, 1), stride=(1, 1), bias=False)
        (bn): BatchNorm2d(192, eps=0.001, momentum=0.1, affine=True, track_running_stats=True)
        (relu): ReLU()
      )
      (1): BasicConv2d(
        (conv): Conv2d(192, 192, kernel_size=(1, 3), stride=(1, 1), padding=(0, 1), bias=False)
        (bn): BatchNorm2d(192, eps=0.001, momentum=0.1, affine=True, track_running_stats=True)
        (relu): ReLU()
      )
      (2): BasicConv2d(
        (conv): Conv2d(192, 192, kernel_size=(3, 1), stride=(1, 1), padding=(1, 0), bias=False)
        (bn): BatchNorm2d(192, eps=0.001, momentum=0.1, affine=True, track_running_stats=True)
        (relu): ReLU()
      )
    )
    (conv2d): Conv2d(384, 1792, kernel_size=(1, 1), stride=(1, 1))
    (relu): ReLU()
  )
  (2): Block8(
    (branch0): BasicConv2d(
      (conv): Conv2d(1792, 192, kernel_size=(1, 1), stride=(1, 1), bias=False)
      (bn): BatchNorm2d(192, eps=0.001, momentum=0.1, affine=True, track_running_stats=True)
      (relu): ReLU()
    )
    (branch1): Sequential(
      (0): BasicConv2d(
        (conv): Conv2d(1792, 192, kernel_size=(1, 1), stride=(1, 1), bias=False)
        (bn): BatchNorm2d(192, eps=0.001, momentum=0.1, affine=True, track_running_stats=True)
        (relu): ReLU()
      )
      (1): BasicConv2d(
        (conv): Conv2d(192, 192, kernel_size=(1, 3), stride=(1, 1), padding=(0, 1), bias=False)
        (bn): BatchNorm2d(192, eps=0.001, momentum=0.1, affine=True, track_running_stats=True)
        (relu): ReLU()
      )
      (2): BasicConv2d(
        (conv): Conv2d(192, 192, kernel_size=(3, 1), stride=(1, 1), padding=(1, 0), bias=False)
        (bn): BatchNorm2d(192, eps=0.001, momentum=0.1, affine=True, track_running_stats=True)
        (relu): ReLU()
      )
    )
    (conv2d): Conv2d(384, 1792, kernel_size=(1, 1), stride=(1, 1))
    (relu): ReLU()
  )
  (3): Block8(
    (branch0): BasicConv2d(
      (conv): Conv2d(1792, 192, kernel_size=(1, 1), stride=(1, 1), bias=False)
      (bn): BatchNorm2d(192, eps=0.001, momentum=0.1, affine=True, track_running_stats=True)
      (relu): ReLU()
    )
    (branch1): Sequential(
      (0): BasicConv2d(
        (conv): Conv2d(1792, 192, kernel_size=(1, 1), stride=(1, 1), bias=False)
        (bn): BatchNorm2d(192, eps=0.001, momentum=0.1, affine=True, track_running_stats=True)
        (relu): ReLU()
      )
      (1): BasicConv2d(
        (conv): Conv2d(192, 192, kernel_size=(1, 3), stride=(1, 1), padding=(0, 1), bias=False)
        (bn): BatchNorm2d(192, eps=0.001, momentum=0.1, affine=True, track_running_stats=True)
        (relu): ReLU()
      )
      (2): BasicConv2d(
        (conv): Conv2d(192, 192, kernel_size=(3, 1), stride=(1, 1), padding=(1, 0), bias=False)
        (bn): BatchNorm2d(192, eps=0.001, momentum=0.1, affine=True, track_running_stats=True)
        (relu): ReLU()
      )
    )
    (conv2d): Conv2d(384, 1792, kernel_size=(1, 1), stride=(1, 1))
    (relu): ReLU()
  )
  (4): Block8(
    (branch0): BasicConv2d(
      (conv): Conv2d(1792, 192, kernel_size=(1, 1), stride=(1, 1), bias=False)
      (bn): BatchNorm2d(192, eps=0.001, momentum=0.1, affine=True, track_running_stats=True)
      (relu): ReLU()
    )
    (branch1): Sequential(
      (0): BasicConv2d(
        (conv): Conv2d(1792, 192, kernel_size=(1, 1), stride=(1, 1), bias=False)
        (bn): BatchNorm2d(192, eps=0.001, momentum=0.1, affine=True, track_running_stats=True)
        (relu): ReLU()
      )
      (1): BasicConv2d(
        (conv): Conv2d(192, 192, kernel_size=(1, 3), stride=(1, 1), padding=(0, 1), bias=False)
        (bn): BatchNorm2d(192, eps=0.001, momentum=0.1, affine=True, track_running_stats=True)
        (relu): ReLU()
      )
      (2): BasicConv2d(
        (conv): Conv2d(192, 192, kernel_size=(3, 1), stride=(1, 1), padding=(1, 0), bias=False)
        (bn): BatchNorm2d(192, eps=0.001, momentum=0.1, affine=True, track_running_stats=True)
        (relu): ReLU()
      )
    )
    (conv2d): Conv2d(384, 1792, kernel_size=(1, 1), stride=(1, 1))
    (relu): ReLU()
  )
)
repeat_3.0: Block8(
  (branch0): BasicConv2d(
    (conv): Conv2d(1792, 192, kernel_size=(1, 1), stride=(1, 1), bias=False)
    (bn): BatchNorm2d(192, eps=0.001, momentum=0.1, affine=True, track_running_stats=True)
    (relu): ReLU()
  )
  (branch1): Sequential(
    (0): BasicConv2d(
      (conv): Conv2d(1792, 192, kernel_size=(1, 1), stride=(1, 1), bias=False)
      (bn): BatchNorm2d(192, eps=0.001, momentum=0.1, affine=True, track_running_stats=True)
      (relu): ReLU()
    )
    (1): BasicConv2d(
      (conv): Conv2d(192, 192, kernel_size=(1, 3), stride=(1, 1), padding=(0, 1), bias=False)
      (bn): BatchNorm2d(192, eps=0.001, momentum=0.1, affine=True, track_running_stats=True)
      (relu): ReLU()
    )
    (2): BasicConv2d(
      (conv): Conv2d(192, 192, kernel_size=(3, 1), stride=(1, 1), padding=(1, 0), bias=False)
      (bn): BatchNorm2d(192, eps=0.001, momentum=0.1, affine=True, track_running_stats=True)
      (relu): ReLU()
    )
  )
  (conv2d): Conv2d(384, 1792, kernel_size=(1, 1), stride=(1, 1))
  (relu): ReLU()
)
repeat_3.0.branch0: BasicConv2d(
  (conv): Conv2d(1792, 192, kernel_size=(1, 1), stride=(1, 1), bias=False)
  (bn): BatchNorm2d(192, eps=0.001, momentum=0.1, affine=True, track_running_stats=True)
  (relu): ReLU()
)
repeat_3.0.branch0.conv: Conv2d(1792, 192, kernel_size=(1, 1), stride=(1, 1), bias=False)
repeat_3.0.branch0.bn: BatchNorm2d(192, eps=0.001, momentum=0.1, affine=True, track_running_stats=True)
repeat_3.0.branch0.relu: ReLU()
repeat_3.0.branch1: Sequential(
  (0): BasicConv2d(
    (conv): Conv2d(1792, 192, kernel_size=(1, 1), stride=(1, 1), bias=False)
    (bn): BatchNorm2d(192, eps=0.001, momentum=0.1, affine=True, track_running_stats=True)
    (relu): ReLU()
  )
  (1): BasicConv2d(
    (conv): Conv2d(192, 192, kernel_size=(1, 3), stride=(1, 1), padding=(0, 1), bias=False)
    (bn): BatchNorm2d(192, eps=0.001, momentum=0.1, affine=True, track_running_stats=True)
    (relu): ReLU()
  )
  (2): BasicConv2d(
    (conv): Conv2d(192, 192, kernel_size=(3, 1), stride=(1, 1), padding=(1, 0), bias=False)
    (bn): BatchNorm2d(192, eps=0.001, momentum=0.1, affine=True, track_running_stats=True)
    (relu): ReLU()
  )
)
repeat_3.0.branch1.0: BasicConv2d(
  (conv): Conv2d(1792, 192, kernel_size=(1, 1), stride=(1, 1), bias=False)
  (bn): BatchNorm2d(192, eps=0.001, momentum=0.1, affine=True, track_running_stats=True)
  (relu): ReLU()
)
repeat_3.0.branch1.0.conv: Conv2d(1792, 192, kernel_size=(1, 1), stride=(1, 1), bias=False)
repeat_3.0.branch1.0.bn: BatchNorm2d(192, eps=0.001, momentum=0.1, affine=True, track_running_stats=True)
repeat_3.0.branch1.0.relu: ReLU()
repeat_3.0.branch1.1: BasicConv2d(
  (conv): Conv2d(192, 192, kernel_size=(1, 3), stride=(1, 1), padding=(0, 1), bias=False)
  (bn): BatchNorm2d(192, eps=0.001, momentum=0.1, affine=True, track_running_stats=True)
  (relu): ReLU()
)
repeat_3.0.branch1.1.conv: Conv2d(192, 192, kernel_size=(1, 3), stride=(1, 1), padding=(0, 1), bias=False)
repeat_3.0.branch1.1.bn: BatchNorm2d(192, eps=0.001, momentum=0.1, affine=True, track_running_stats=True)
repeat_3.0.branch1.1.relu: ReLU()
repeat_3.0.branch1.2: BasicConv2d(
  (conv): Conv2d(192, 192, kernel_size=(3, 1), stride=(1, 1), padding=(1, 0), bias=False)
  (bn): BatchNorm2d(192, eps=0.001, momentum=0.1, affine=True, track_running_stats=True)
  (relu): ReLU()
)
repeat_3.0.branch1.2.conv: Conv2d(192, 192, kernel_size=(3, 1), stride=(1, 1), padding=(1, 0), bias=False)
repeat_3.0.branch1.2.bn: BatchNorm2d(192, eps=0.001, momentum=0.1, affine=True, track_running_stats=True)
repeat_3.0.branch1.2.relu: ReLU()
repeat_3.0.conv2d: Conv2d(384, 1792, kernel_size=(1, 1), stride=(1, 1))
repeat_3.0.relu: ReLU()
repeat_3.1: Block8(
  (branch0): BasicConv2d(
    (conv): Conv2d(1792, 192, kernel_size=(1, 1), stride=(1, 1), bias=False)
    (bn): BatchNorm2d(192, eps=0.001, momentum=0.1, affine=True, track_running_stats=True)
    (relu): ReLU()
  )
  (branch1): Sequential(
    (0): BasicConv2d(
      (conv): Conv2d(1792, 192, kernel_size=(1, 1), stride=(1, 1), bias=False)
      (bn): BatchNorm2d(192, eps=0.001, momentum=0.1, affine=True, track_running_stats=True)
      (relu): ReLU()
    )
    (1): BasicConv2d(
      (conv): Conv2d(192, 192, kernel_size=(1, 3), stride=(1, 1), padding=(0, 1), bias=False)
      (bn): BatchNorm2d(192, eps=0.001, momentum=0.1, affine=True, track_running_stats=True)
      (relu): ReLU()
    )
    (2): BasicConv2d(
      (conv): Conv2d(192, 192, kernel_size=(3, 1), stride=(1, 1), padding=(1, 0), bias=False)
      (bn): BatchNorm2d(192, eps=0.001, momentum=0.1, affine=True, track_running_stats=True)
      (relu): ReLU()
    )
  )
  (conv2d): Conv2d(384, 1792, kernel_size=(1, 1), stride=(1, 1))
  (relu): ReLU()
)
repeat_3.1.branch0: BasicConv2d(
  (conv): Conv2d(1792, 192, kernel_size=(1, 1), stride=(1, 1), bias=False)
  (bn): BatchNorm2d(192, eps=0.001, momentum=0.1, affine=True, track_running_stats=True)
  (relu): ReLU()
)
repeat_3.1.branch0.conv: Conv2d(1792, 192, kernel_size=(1, 1), stride=(1, 1), bias=False)
repeat_3.1.branch0.bn: BatchNorm2d(192, eps=0.001, momentum=0.1, affine=True, track_running_stats=True)
repeat_3.1.branch0.relu: ReLU()
repeat_3.1.branch1: Sequential(
  (0): BasicConv2d(
    (conv): Conv2d(1792, 192, kernel_size=(1, 1), stride=(1, 1), bias=False)
    (bn): BatchNorm2d(192, eps=0.001, momentum=0.1, affine=True, track_running_stats=True)
    (relu): ReLU()
  )
  (1): BasicConv2d(
    (conv): Conv2d(192, 192, kernel_size=(1, 3), stride=(1, 1), padding=(0, 1), bias=False)
    (bn): BatchNorm2d(192, eps=0.001, momentum=0.1, affine=True, track_running_stats=True)
    (relu): ReLU()
  )
  (2): BasicConv2d(
    (conv): Conv2d(192, 192, kernel_size=(3, 1), stride=(1, 1), padding=(1, 0), bias=False)
    (bn): BatchNorm2d(192, eps=0.001, momentum=0.1, affine=True, track_running_stats=True)
    (relu): ReLU()
  )
)
repeat_3.1.branch1.0: BasicConv2d(
  (conv): Conv2d(1792, 192, kernel_size=(1, 1), stride=(1, 1), bias=False)
  (bn): BatchNorm2d(192, eps=0.001, momentum=0.1, affine=True, track_running_stats=True)
  (relu): ReLU()
)
repeat_3.1.branch1.0.conv: Conv2d(1792, 192, kernel_size=(1, 1), stride=(1, 1), bias=False)
repeat_3.1.branch1.0.bn: BatchNorm2d(192, eps=0.001, momentum=0.1, affine=True, track_running_stats=True)
repeat_3.1.branch1.0.relu: ReLU()
repeat_3.1.branch1.1: BasicConv2d(
  (conv): Conv2d(192, 192, kernel_size=(1, 3), stride=(1, 1), padding=(0, 1), bias=False)
  (bn): BatchNorm2d(192, eps=0.001, momentum=0.1, affine=True, track_running_stats=True)
  (relu): ReLU()
)
repeat_3.1.branch1.1.conv: Conv2d(192, 192, kernel_size=(1, 3), stride=(1, 1), padding=(0, 1), bias=False)
repeat_3.1.branch1.1.bn: BatchNorm2d(192, eps=0.001, momentum=0.1, affine=True, track_running_stats=True)
repeat_3.1.branch1.1.relu: ReLU()
repeat_3.1.branch1.2: BasicConv2d(
  (conv): Conv2d(192, 192, kernel_size=(3, 1), stride=(1, 1), padding=(1, 0), bias=False)
  (bn): BatchNorm2d(192, eps=0.001, momentum=0.1, affine=True, track_running_stats=True)
  (relu): ReLU()
)
repeat_3.1.branch1.2.conv: Conv2d(192, 192, kernel_size=(3, 1), stride=(1, 1), padding=(1, 0), bias=False)
repeat_3.1.branch1.2.bn: BatchNorm2d(192, eps=0.001, momentum=0.1, affine=True, track_running_stats=True)
repeat_3.1.branch1.2.relu: ReLU()
repeat_3.1.conv2d: Conv2d(384, 1792, kernel_size=(1, 1), stride=(1, 1))
repeat_3.1.relu: ReLU()
repeat_3.2: Block8(
  (branch0): BasicConv2d(
    (conv): Conv2d(1792, 192, kernel_size=(1, 1), stride=(1, 1), bias=False)
    (bn): BatchNorm2d(192, eps=0.001, momentum=0.1, affine=True, track_running_stats=True)
    (relu): ReLU()
  )
  (branch1): Sequential(
    (0): BasicConv2d(
      (conv): Conv2d(1792, 192, kernel_size=(1, 1), stride=(1, 1), bias=False)
      (bn): BatchNorm2d(192, eps=0.001, momentum=0.1, affine=True, track_running_stats=True)
      (relu): ReLU()
    )
    (1): BasicConv2d(
      (conv): Conv2d(192, 192, kernel_size=(1, 3), stride=(1, 1), padding=(0, 1), bias=False)
      (bn): BatchNorm2d(192, eps=0.001, momentum=0.1, affine=True, track_running_stats=True)
      (relu): ReLU()
    )
    (2): BasicConv2d(
      (conv): Conv2d(192, 192, kernel_size=(3, 1), stride=(1, 1), padding=(1, 0), bias=False)
      (bn): BatchNorm2d(192, eps=0.001, momentum=0.1, affine=True, track_running_stats=True)
      (relu): ReLU()
    )
  )
  (conv2d): Conv2d(384, 1792, kernel_size=(1, 1), stride=(1, 1))
  (relu): ReLU()
)
repeat_3.2.branch0: BasicConv2d(
  (conv): Conv2d(1792, 192, kernel_size=(1, 1), stride=(1, 1), bias=False)
  (bn): BatchNorm2d(192, eps=0.001, momentum=0.1, affine=True, track_running_stats=True)
  (relu): ReLU()
)
repeat_3.2.branch0.conv: Conv2d(1792, 192, kernel_size=(1, 1), stride=(1, 1), bias=False)
repeat_3.2.branch0.bn: BatchNorm2d(192, eps=0.001, momentum=0.1, affine=True, track_running_stats=True)
repeat_3.2.branch0.relu: ReLU()
repeat_3.2.branch1: Sequential(
  (0): BasicConv2d(
    (conv): Conv2d(1792, 192, kernel_size=(1, 1), stride=(1, 1), bias=False)
    (bn): BatchNorm2d(192, eps=0.001, momentum=0.1, affine=True, track_running_stats=True)
    (relu): ReLU()
  )
  (1): BasicConv2d(
    (conv): Conv2d(192, 192, kernel_size=(1, 3), stride=(1, 1), padding=(0, 1), bias=False)
    (bn): BatchNorm2d(192, eps=0.001, momentum=0.1, affine=True, track_running_stats=True)
    (relu): ReLU()
  )
  (2): BasicConv2d(
    (conv): Conv2d(192, 192, kernel_size=(3, 1), stride=(1, 1), padding=(1, 0), bias=False)
    (bn): BatchNorm2d(192, eps=0.001, momentum=0.1, affine=True, track_running_stats=True)
    (relu): ReLU()
  )
)
repeat_3.2.branch1.0: BasicConv2d(
  (conv): Conv2d(1792, 192, kernel_size=(1, 1), stride=(1, 1), bias=False)
  (bn): BatchNorm2d(192, eps=0.001, momentum=0.1, affine=True, track_running_stats=True)
  (relu): ReLU()
)
repeat_3.2.branch1.0.conv: Conv2d(1792, 192, kernel_size=(1, 1), stride=(1, 1), bias=False)
repeat_3.2.branch1.0.bn: BatchNorm2d(192, eps=0.001, momentum=0.1, affine=True, track_running_stats=True)
repeat_3.2.branch1.0.relu: ReLU()
repeat_3.2.branch1.1: BasicConv2d(
  (conv): Conv2d(192, 192, kernel_size=(1, 3), stride=(1, 1), padding=(0, 1), bias=False)
  (bn): BatchNorm2d(192, eps=0.001, momentum=0.1, affine=True, track_running_stats=True)
  (relu): ReLU()
)
repeat_3.2.branch1.1.conv: Conv2d(192, 192, kernel_size=(1, 3), stride=(1, 1), padding=(0, 1), bias=False)
repeat_3.2.branch1.1.bn: BatchNorm2d(192, eps=0.001, momentum=0.1, affine=True, track_running_stats=True)
repeat_3.2.branch1.1.relu: ReLU()
repeat_3.2.branch1.2: BasicConv2d(
  (conv): Conv2d(192, 192, kernel_size=(3, 1), stride=(1, 1), padding=(1, 0), bias=False)
  (bn): BatchNorm2d(192, eps=0.001, momentum=0.1, affine=True, track_running_stats=True)
  (relu): ReLU()
)
repeat_3.2.branch1.2.conv: Conv2d(192, 192, kernel_size=(3, 1), stride=(1, 1), padding=(1, 0), bias=False)
repeat_3.2.branch1.2.bn: BatchNorm2d(192, eps=0.001, momentum=0.1, affine=True, track_running_stats=True)
repeat_3.2.branch1.2.relu: ReLU()
repeat_3.2.conv2d: Conv2d(384, 1792, kernel_size=(1, 1), stride=(1, 1))
repeat_3.2.relu: ReLU()
repeat_3.3: Block8(
  (branch0): BasicConv2d(
    (conv): Conv2d(1792, 192, kernel_size=(1, 1), stride=(1, 1), bias=False)
    (bn): BatchNorm2d(192, eps=0.001, momentum=0.1, affine=True, track_running_stats=True)
    (relu): ReLU()
  )
  (branch1): Sequential(
    (0): BasicConv2d(
      (conv): Conv2d(1792, 192, kernel_size=(1, 1), stride=(1, 1), bias=False)
      (bn): BatchNorm2d(192, eps=0.001, momentum=0.1, affine=True, track_running_stats=True)
      (relu): ReLU()
    )
    (1): BasicConv2d(
      (conv): Conv2d(192, 192, kernel_size=(1, 3), stride=(1, 1), padding=(0, 1), bias=False)
      (bn): BatchNorm2d(192, eps=0.001, momentum=0.1, affine=True, track_running_stats=True)
      (relu): ReLU()
    )
    (2): BasicConv2d(
      (conv): Conv2d(192, 192, kernel_size=(3, 1), stride=(1, 1), padding=(1, 0), bias=False)
      (bn): BatchNorm2d(192, eps=0.001, momentum=0.1, affine=True, track_running_stats=True)
      (relu): ReLU()
    )
  )
  (conv2d): Conv2d(384, 1792, kernel_size=(1, 1), stride=(1, 1))
  (relu): ReLU()
)
repeat_3.3.branch0: BasicConv2d(
  (conv): Conv2d(1792, 192, kernel_size=(1, 1), stride=(1, 1), bias=False)
  (bn): BatchNorm2d(192, eps=0.001, momentum=0.1, affine=True, track_running_stats=True)
  (relu): ReLU()
)
repeat_3.3.branch0.conv: Conv2d(1792, 192, kernel_size=(1, 1), stride=(1, 1), bias=False)
repeat_3.3.branch0.bn: BatchNorm2d(192, eps=0.001, momentum=0.1, affine=True, track_running_stats=True)
repeat_3.3.branch0.relu: ReLU()
repeat_3.3.branch1: Sequential(
  (0): BasicConv2d(
    (conv): Conv2d(1792, 192, kernel_size=(1, 1), stride=(1, 1), bias=False)
    (bn): BatchNorm2d(192, eps=0.001, momentum=0.1, affine=True, track_running_stats=True)
    (relu): ReLU()
  )
  (1): BasicConv2d(
    (conv): Conv2d(192, 192, kernel_size=(1, 3), stride=(1, 1), padding=(0, 1), bias=False)
    (bn): BatchNorm2d(192, eps=0.001, momentum=0.1, affine=True, track_running_stats=True)
    (relu): ReLU()
  )
  (2): BasicConv2d(
    (conv): Conv2d(192, 192, kernel_size=(3, 1), stride=(1, 1), padding=(1, 0), bias=False)
    (bn): BatchNorm2d(192, eps=0.001, momentum=0.1, affine=True, track_running_stats=True)
    (relu): ReLU()
  )
)
repeat_3.3.branch1.0: BasicConv2d(
  (conv): Conv2d(1792, 192, kernel_size=(1, 1), stride=(1, 1), bias=False)
  (bn): BatchNorm2d(192, eps=0.001, momentum=0.1, affine=True, track_running_stats=True)
  (relu): ReLU()
)
repeat_3.3.branch1.0.conv: Conv2d(1792, 192, kernel_size=(1, 1), stride=(1, 1), bias=False)
repeat_3.3.branch1.0.bn: BatchNorm2d(192, eps=0.001, momentum=0.1, affine=True, track_running_stats=True)
repeat_3.3.branch1.0.relu: ReLU()
repeat_3.3.branch1.1: BasicConv2d(
  (conv): Conv2d(192, 192, kernel_size=(1, 3), stride=(1, 1), padding=(0, 1), bias=False)
  (bn): BatchNorm2d(192, eps=0.001, momentum=0.1, affine=True, track_running_stats=True)
  (relu): ReLU()
)
repeat_3.3.branch1.1.conv: Conv2d(192, 192, kernel_size=(1, 3), stride=(1, 1), padding=(0, 1), bias=False)
repeat_3.3.branch1.1.bn: BatchNorm2d(192, eps=0.001, momentum=0.1, affine=True, track_running_stats=True)
repeat_3.3.branch1.1.relu: ReLU()
repeat_3.3.branch1.2: BasicConv2d(
  (conv): Conv2d(192, 192, kernel_size=(3, 1), stride=(1, 1), padding=(1, 0), bias=False)
  (bn): BatchNorm2d(192, eps=0.001, momentum=0.1, affine=True, track_running_stats=True)
  (relu): ReLU()
)
repeat_3.3.branch1.2.conv: Conv2d(192, 192, kernel_size=(3, 1), stride=(1, 1), padding=(1, 0), bias=False)
repeat_3.3.branch1.2.bn: BatchNorm2d(192, eps=0.001, momentum=0.1, affine=True, track_running_stats=True)
repeat_3.3.branch1.2.relu: ReLU()
repeat_3.3.conv2d: Conv2d(384, 1792, kernel_size=(1, 1), stride=(1, 1))
repeat_3.3.relu: ReLU()
repeat_3.4: Block8(
  (branch0): BasicConv2d(
    (conv): Conv2d(1792, 192, kernel_size=(1, 1), stride=(1, 1), bias=False)
    (bn): BatchNorm2d(192, eps=0.001, momentum=0.1, affine=True, track_running_stats=True)
    (relu): ReLU()
  )
  (branch1): Sequential(
    (0): BasicConv2d(
      (conv): Conv2d(1792, 192, kernel_size=(1, 1), stride=(1, 1), bias=False)
      (bn): BatchNorm2d(192, eps=0.001, momentum=0.1, affine=True, track_running_stats=True)
      (relu): ReLU()
    )
    (1): BasicConv2d(
      (conv): Conv2d(192, 192, kernel_size=(1, 3), stride=(1, 1), padding=(0, 1), bias=False)
      (bn): BatchNorm2d(192, eps=0.001, momentum=0.1, affine=True, track_running_stats=True)
      (relu): ReLU()
    )
    (2): BasicConv2d(
      (conv): Conv2d(192, 192, kernel_size=(3, 1), stride=(1, 1), padding=(1, 0), bias=False)
      (bn): BatchNorm2d(192, eps=0.001, momentum=0.1, affine=True, track_running_stats=True)
      (relu): ReLU()
    )
  )
  (conv2d): Conv2d(384, 1792, kernel_size=(1, 1), stride=(1, 1))
  (relu): ReLU()
)
repeat_3.4.branch0: BasicConv2d(
  (conv): Conv2d(1792, 192, kernel_size=(1, 1), stride=(1, 1), bias=False)
  (bn): BatchNorm2d(192, eps=0.001, momentum=0.1, affine=True, track_running_stats=True)
  (relu): ReLU()
)
repeat_3.4.branch0.conv: Conv2d(1792, 192, kernel_size=(1, 1), stride=(1, 1), bias=False)
repeat_3.4.branch0.bn: BatchNorm2d(192, eps=0.001, momentum=0.1, affine=True, track_running_stats=True)
repeat_3.4.branch0.relu: ReLU()
repeat_3.4.branch1: Sequential(
  (0): BasicConv2d(
    (conv): Conv2d(1792, 192, kernel_size=(1, 1), stride=(1, 1), bias=False)
    (bn): BatchNorm2d(192, eps=0.001, momentum=0.1, affine=True, track_running_stats=True)
    (relu): ReLU()
  )
  (1): BasicConv2d(
    (conv): Conv2d(192, 192, kernel_size=(1, 3), stride=(1, 1), padding=(0, 1), bias=False)
    (bn): BatchNorm2d(192, eps=0.001, momentum=0.1, affine=True, track_running_stats=True)
    (relu): ReLU()
  )
  (2): BasicConv2d(
    (conv): Conv2d(192, 192, kernel_size=(3, 1), stride=(1, 1), padding=(1, 0), bias=False)
    (bn): BatchNorm2d(192, eps=0.001, momentum=0.1, affine=True, track_running_stats=True)
    (relu): ReLU()
  )
)
repeat_3.4.branch1.0: BasicConv2d(
  (conv): Conv2d(1792, 192, kernel_size=(1, 1), stride=(1, 1), bias=False)
  (bn): BatchNorm2d(192, eps=0.001, momentum=0.1, affine=True, track_running_stats=True)
  (relu): ReLU()
)
repeat_3.4.branch1.0.conv: Conv2d(1792, 192, kernel_size=(1, 1), stride=(1, 1), bias=False)
repeat_3.4.branch1.0.bn: BatchNorm2d(192, eps=0.001, momentum=0.1, affine=True, track_running_stats=True)
repeat_3.4.branch1.0.relu: ReLU()
repeat_3.4.branch1.1: BasicConv2d(
  (conv): Conv2d(192, 192, kernel_size=(1, 3), stride=(1, 1), padding=(0, 1), bias=False)
  (bn): BatchNorm2d(192, eps=0.001, momentum=0.1, affine=True, track_running_stats=True)
  (relu): ReLU()
)
repeat_3.4.branch1.1.conv: Conv2d(192, 192, kernel_size=(1, 3), stride=(1, 1), padding=(0, 1), bias=False)
repeat_3.4.branch1.1.bn: BatchNorm2d(192, eps=0.001, momentum=0.1, affine=True, track_running_stats=True)
repeat_3.4.branch1.1.relu: ReLU()
repeat_3.4.branch1.2: BasicConv2d(
  (conv): Conv2d(192, 192, kernel_size=(3, 1), stride=(1, 1), padding=(1, 0), bias=False)
  (bn): BatchNorm2d(192, eps=0.001, momentum=0.1, affine=True, track_running_stats=True)
  (relu): ReLU()
)
repeat_3.4.branch1.2.conv: Conv2d(192, 192, kernel_size=(3, 1), stride=(1, 1), padding=(1, 0), bias=False)
repeat_3.4.branch1.2.bn: BatchNorm2d(192, eps=0.001, momentum=0.1, affine=True, track_running_stats=True)
repeat_3.4.branch1.2.relu: ReLU()
repeat_3.4.conv2d: Conv2d(384, 1792, kernel_size=(1, 1), stride=(1, 1))
repeat_3.4.relu: ReLU()
block8: Block8(
  (branch0): BasicConv2d(
    (conv): Conv2d(1792, 192, kernel_size=(1, 1), stride=(1, 1), bias=False)
    (bn): BatchNorm2d(192, eps=0.001, momentum=0.1, affine=True, track_running_stats=True)
    (relu): ReLU()
  )
  (branch1): Sequential(
    (0): BasicConv2d(
      (conv): Conv2d(1792, 192, kernel_size=(1, 1), stride=(1, 1), bias=False)
      (bn): BatchNorm2d(192, eps=0.001, momentum=0.1, affine=True, track_running_stats=True)
      (relu): ReLU()
    )
    (1): BasicConv2d(
      (conv): Conv2d(192, 192, kernel_size=(1, 3), stride=(1, 1), padding=(0, 1), bias=False)
      (bn): BatchNorm2d(192, eps=0.001, momentum=0.1, affine=True, track_running_stats=True)
      (relu): ReLU()
    )
    (2): BasicConv2d(
      (conv): Conv2d(192, 192, kernel_size=(3, 1), stride=(1, 1), padding=(1, 0), bias=False)
      (bn): BatchNorm2d(192, eps=0.001, momentum=0.1, affine=True, track_running_stats=True)
      (relu): ReLU()
    )
  )
  (conv2d): Conv2d(384, 1792, kernel_size=(1, 1), stride=(1, 1))
)
block8.branch0: BasicConv2d(
  (conv): Conv2d(1792, 192, kernel_size=(1, 1), stride=(1, 1), bias=False)
  (bn): BatchNorm2d(192, eps=0.001, momentum=0.1, affine=True, track_running_stats=True)
  (relu): ReLU()
)
block8.branch0.conv: Conv2d(1792, 192, kernel_size=(1, 1), stride=(1, 1), bias=False)
block8.branch0.bn: BatchNorm2d(192, eps=0.001, momentum=0.1, affine=True, track_running_stats=True)
block8.branch0.relu: ReLU()
block8.branch1: Sequential(
  (0): BasicConv2d(
    (conv): Conv2d(1792, 192, kernel_size=(1, 1), stride=(1, 1), bias=False)
    (bn): BatchNorm2d(192, eps=0.001, momentum=0.1, affine=True, track_running_stats=True)
    (relu): ReLU()
  )
  (1): BasicConv2d(
    (conv): Conv2d(192, 192, kernel_size=(1, 3), stride=(1, 1), padding=(0, 1), bias=False)
    (bn): BatchNorm2d(192, eps=0.001, momentum=0.1, affine=True, track_running_stats=True)
    (relu): ReLU()
  )
  (2): BasicConv2d(
    (conv): Conv2d(192, 192, kernel_size=(3, 1), stride=(1, 1), padding=(1, 0), bias=False)
    (bn): BatchNorm2d(192, eps=0.001, momentum=0.1, affine=True, track_running_stats=True)
    (relu): ReLU()
  )
)
block8.branch1.0: BasicConv2d(
  (conv): Conv2d(1792, 192, kernel_size=(1, 1), stride=(1, 1), bias=False)
  (bn): BatchNorm2d(192, eps=0.001, momentum=0.1, affine=True, track_running_stats=True)
  (relu): ReLU()
)
block8.branch1.0.conv: Conv2d(1792, 192, kernel_size=(1, 1), stride=(1, 1), bias=False)
block8.branch1.0.bn: BatchNorm2d(192, eps=0.001, momentum=0.1, affine=True, track_running_stats=True)
block8.branch1.0.relu: ReLU()
block8.branch1.1: BasicConv2d(
  (conv): Conv2d(192, 192, kernel_size=(1, 3), stride=(1, 1), padding=(0, 1), bias=False)
  (bn): BatchNorm2d(192, eps=0.001, momentum=0.1, affine=True, track_running_stats=True)
  (relu): ReLU()
)
block8.branch1.1.conv: Conv2d(192, 192, kernel_size=(1, 3), stride=(1, 1), padding=(0, 1), bias=False)
block8.branch1.1.bn: BatchNorm2d(192, eps=0.001, momentum=0.1, affine=True, track_running_stats=True)
block8.branch1.1.relu: ReLU()
block8.branch1.2: BasicConv2d(
  (conv): Conv2d(192, 192, kernel_size=(3, 1), stride=(1, 1), padding=(1, 0), bias=False)
  (bn): BatchNorm2d(192, eps=0.001, momentum=0.1, affine=True, track_running_stats=True)
  (relu): ReLU()
)
block8.branch1.2.conv: Conv2d(192, 192, kernel_size=(3, 1), stride=(1, 1), padding=(1, 0), bias=False)
block8.branch1.2.bn: BatchNorm2d(192, eps=0.001, momentum=0.1, affine=True, track_running_stats=True)
block8.branch1.2.relu: ReLU()
block8.conv2d: Conv2d(384, 1792, kernel_size=(1, 1), stride=(1, 1))
avgpool_1a: AdaptiveAvgPool2d(output_size=1)
…
